<?xml version="1.0" ?>
<net name="bsrganx2_160x160" version="10">
	<layers>
		<layer id="0" name="input.1" type="Parameter" version="opset1">
			<data shape="1, 3, 160, 160" element_type="f32"/>
			<output>
				<port id="0" precision="FP32" names="input.1">
					<dim>1</dim>
					<dim>3</dim>
					<dim>160</dim>
					<dim>160</dim>
				</port>
			</output>
		</layer>
		<layer id="1" name="conv_first.weight" type="Const" version="opset1">
			<data element_type="f32" shape="64, 3, 3, 3" offset="0" size="6912"/>
			<output>
				<port id="0" precision="FP32" names="conv_first.weight">
					<dim>64</dim>
					<dim>3</dim>
					<dim>3</dim>
					<dim>3</dim>
				</port>
			</output>
		</layer>
		<layer id="2" name="Conv_0/WithoutBiases" type="Convolution" version="opset1">
			<data strides="1, 1" dilations="1, 1" pads_begin="1, 1" pads_end="1, 1" auto_pad="explicit"/>
			<input>
				<port id="0" precision="FP32">
					<dim>1</dim>
					<dim>3</dim>
					<dim>160</dim>
					<dim>160</dim>
				</port>
				<port id="1" precision="FP32">
					<dim>64</dim>
					<dim>3</dim>
					<dim>3</dim>
					<dim>3</dim>
				</port>
			</input>
			<output>
				<port id="2" precision="FP32">
					<dim>1</dim>
					<dim>64</dim>
					<dim>160</dim>
					<dim>160</dim>
				</port>
			</output>
		</layer>
		<layer id="3" name="Conv_0/Dims14798" type="Const" version="opset1">
			<data element_type="f32" shape="1, 64, 1, 1" offset="6912" size="256"/>
			<output>
				<port id="0" precision="FP32">
					<dim>1</dim>
					<dim>64</dim>
					<dim>1</dim>
					<dim>1</dim>
				</port>
			</output>
		</layer>
		<layer id="4" name="Conv_0" type="Add" version="opset1">
			<data auto_broadcast="numpy"/>
			<input>
				<port id="0" precision="FP32">
					<dim>1</dim>
					<dim>64</dim>
					<dim>160</dim>
					<dim>160</dim>
				</port>
				<port id="1" precision="FP32">
					<dim>1</dim>
					<dim>64</dim>
					<dim>1</dim>
					<dim>1</dim>
				</port>
			</input>
			<output>
				<port id="2" precision="FP32" names="701">
					<dim>1</dim>
					<dim>64</dim>
					<dim>160</dim>
					<dim>160</dim>
				</port>
			</output>
		</layer>
		<layer id="5" name="RRDB_trunk.0.RDB1.conv1.weight" type="Const" version="opset1">
			<data element_type="f32" shape="32, 64, 3, 3" offset="7168" size="73728"/>
			<output>
				<port id="0" precision="FP32" names="RRDB_trunk.0.RDB1.conv1.weight">
					<dim>32</dim>
					<dim>64</dim>
					<dim>3</dim>
					<dim>3</dim>
				</port>
			</output>
		</layer>
		<layer id="6" name="Conv_1/WithoutBiases" type="Convolution" version="opset1">
			<data strides="1, 1" dilations="1, 1" pads_begin="1, 1" pads_end="1, 1" auto_pad="explicit"/>
			<input>
				<port id="0" precision="FP32">
					<dim>1</dim>
					<dim>64</dim>
					<dim>160</dim>
					<dim>160</dim>
				</port>
				<port id="1" precision="FP32">
					<dim>32</dim>
					<dim>64</dim>
					<dim>3</dim>
					<dim>3</dim>
				</port>
			</input>
			<output>
				<port id="2" precision="FP32">
					<dim>1</dim>
					<dim>32</dim>
					<dim>160</dim>
					<dim>160</dim>
				</port>
			</output>
		</layer>
		<layer id="7" name="Conv_1/Dims16316" type="Const" version="opset1">
			<data element_type="f32" shape="1, 32, 1, 1" offset="80896" size="128"/>
			<output>
				<port id="0" precision="FP32">
					<dim>1</dim>
					<dim>32</dim>
					<dim>1</dim>
					<dim>1</dim>
				</port>
			</output>
		</layer>
		<layer id="8" name="Conv_1" type="Add" version="opset1">
			<data auto_broadcast="numpy"/>
			<input>
				<port id="0" precision="FP32">
					<dim>1</dim>
					<dim>32</dim>
					<dim>160</dim>
					<dim>160</dim>
				</port>
				<port id="1" precision="FP32">
					<dim>1</dim>
					<dim>32</dim>
					<dim>1</dim>
					<dim>1</dim>
				</port>
			</input>
			<output>
				<port id="2" precision="FP32" names="702">
					<dim>1</dim>
					<dim>32</dim>
					<dim>160</dim>
					<dim>160</dim>
				</port>
			</output>
		</layer>
		<layer id="9" name="LeakyRelu_2/weights4203368414" type="Const" version="opset1">
			<data element_type="f32" shape="1" offset="81024" size="4"/>
			<output>
				<port id="0" precision="FP32">
					<dim>1</dim>
				</port>
			</output>
		</layer>
		<layer id="10" name="LeakyRelu_2" type="PReLU" version="opset1">
			<input>
				<port id="0" precision="FP32">
					<dim>1</dim>
					<dim>32</dim>
					<dim>160</dim>
					<dim>160</dim>
				</port>
				<port id="1" precision="FP32">
					<dim>1</dim>
				</port>
			</input>
			<output>
				<port id="2" precision="FP32" names="703">
					<dim>1</dim>
					<dim>32</dim>
					<dim>160</dim>
					<dim>160</dim>
				</port>
			</output>
		</layer>
		<layer id="11" name="Concat_3" type="Concat" version="opset1">
			<data axis="1"/>
			<input>
				<port id="0" precision="FP32">
					<dim>1</dim>
					<dim>64</dim>
					<dim>160</dim>
					<dim>160</dim>
				</port>
				<port id="1" precision="FP32">
					<dim>1</dim>
					<dim>32</dim>
					<dim>160</dim>
					<dim>160</dim>
				</port>
			</input>
			<output>
				<port id="2" precision="FP32" names="704">
					<dim>1</dim>
					<dim>96</dim>
					<dim>160</dim>
					<dim>160</dim>
				</port>
			</output>
		</layer>
		<layer id="12" name="RRDB_trunk.0.RDB1.conv2.weight" type="Const" version="opset1">
			<data element_type="f32" shape="32, 96, 3, 3" offset="81028" size="110592"/>
			<output>
				<port id="0" precision="FP32" names="RRDB_trunk.0.RDB1.conv2.weight">
					<dim>32</dim>
					<dim>96</dim>
					<dim>3</dim>
					<dim>3</dim>
				</port>
			</output>
		</layer>
		<layer id="13" name="Conv_4/WithoutBiases" type="Convolution" version="opset1">
			<data strides="1, 1" dilations="1, 1" pads_begin="1, 1" pads_end="1, 1" auto_pad="explicit"/>
			<input>
				<port id="0" precision="FP32">
					<dim>1</dim>
					<dim>96</dim>
					<dim>160</dim>
					<dim>160</dim>
				</port>
				<port id="1" precision="FP32">
					<dim>32</dim>
					<dim>96</dim>
					<dim>3</dim>
					<dim>3</dim>
				</port>
			</input>
			<output>
				<port id="2" precision="FP32">
					<dim>1</dim>
					<dim>32</dim>
					<dim>160</dim>
					<dim>160</dim>
				</port>
			</output>
		</layer>
		<layer id="14" name="Conv_4/Dims16118" type="Const" version="opset1">
			<data element_type="f32" shape="1, 32, 1, 1" offset="191620" size="128"/>
			<output>
				<port id="0" precision="FP32">
					<dim>1</dim>
					<dim>32</dim>
					<dim>1</dim>
					<dim>1</dim>
				</port>
			</output>
		</layer>
		<layer id="15" name="Conv_4" type="Add" version="opset1">
			<data auto_broadcast="numpy"/>
			<input>
				<port id="0" precision="FP32">
					<dim>1</dim>
					<dim>32</dim>
					<dim>160</dim>
					<dim>160</dim>
				</port>
				<port id="1" precision="FP32">
					<dim>1</dim>
					<dim>32</dim>
					<dim>1</dim>
					<dim>1</dim>
				</port>
			</input>
			<output>
				<port id="2" precision="FP32" names="705">
					<dim>1</dim>
					<dim>32</dim>
					<dim>160</dim>
					<dim>160</dim>
				</port>
			</output>
		</layer>
		<layer id="16" name="LeakyRelu_5/weights4198167286" type="Const" version="opset1">
			<data element_type="f32" shape="1" offset="81024" size="4"/>
			<output>
				<port id="0" precision="FP32">
					<dim>1</dim>
				</port>
			</output>
		</layer>
		<layer id="17" name="LeakyRelu_5" type="PReLU" version="opset1">
			<input>
				<port id="0" precision="FP32">
					<dim>1</dim>
					<dim>32</dim>
					<dim>160</dim>
					<dim>160</dim>
				</port>
				<port id="1" precision="FP32">
					<dim>1</dim>
				</port>
			</input>
			<output>
				<port id="2" precision="FP32" names="706">
					<dim>1</dim>
					<dim>32</dim>
					<dim>160</dim>
					<dim>160</dim>
				</port>
			</output>
		</layer>
		<layer id="18" name="Concat_6" type="Concat" version="opset1">
			<data axis="1"/>
			<input>
				<port id="0" precision="FP32">
					<dim>1</dim>
					<dim>64</dim>
					<dim>160</dim>
					<dim>160</dim>
				</port>
				<port id="1" precision="FP32">
					<dim>1</dim>
					<dim>32</dim>
					<dim>160</dim>
					<dim>160</dim>
				</port>
				<port id="2" precision="FP32">
					<dim>1</dim>
					<dim>32</dim>
					<dim>160</dim>
					<dim>160</dim>
				</port>
			</input>
			<output>
				<port id="3" precision="FP32" names="707">
					<dim>1</dim>
					<dim>128</dim>
					<dim>160</dim>
					<dim>160</dim>
				</port>
			</output>
		</layer>
		<layer id="19" name="RRDB_trunk.0.RDB1.conv3.weight" type="Const" version="opset1">
			<data element_type="f32" shape="32, 128, 3, 3" offset="191748" size="147456"/>
			<output>
				<port id="0" precision="FP32" names="RRDB_trunk.0.RDB1.conv3.weight">
					<dim>32</dim>
					<dim>128</dim>
					<dim>3</dim>
					<dim>3</dim>
				</port>
			</output>
		</layer>
		<layer id="20" name="Conv_7/WithoutBiases" type="Convolution" version="opset1">
			<data strides="1, 1" dilations="1, 1" pads_begin="1, 1" pads_end="1, 1" auto_pad="explicit"/>
			<input>
				<port id="0" precision="FP32">
					<dim>1</dim>
					<dim>128</dim>
					<dim>160</dim>
					<dim>160</dim>
				</port>
				<port id="1" precision="FP32">
					<dim>32</dim>
					<dim>128</dim>
					<dim>3</dim>
					<dim>3</dim>
				</port>
			</input>
			<output>
				<port id="2" precision="FP32">
					<dim>1</dim>
					<dim>32</dim>
					<dim>160</dim>
					<dim>160</dim>
				</port>
			</output>
		</layer>
		<layer id="21" name="Conv_7/Dims14828" type="Const" version="opset1">
			<data element_type="f32" shape="1, 32, 1, 1" offset="339204" size="128"/>
			<output>
				<port id="0" precision="FP32">
					<dim>1</dim>
					<dim>32</dim>
					<dim>1</dim>
					<dim>1</dim>
				</port>
			</output>
		</layer>
		<layer id="22" name="Conv_7" type="Add" version="opset1">
			<data auto_broadcast="numpy"/>
			<input>
				<port id="0" precision="FP32">
					<dim>1</dim>
					<dim>32</dim>
					<dim>160</dim>
					<dim>160</dim>
				</port>
				<port id="1" precision="FP32">
					<dim>1</dim>
					<dim>32</dim>
					<dim>1</dim>
					<dim>1</dim>
				</port>
			</input>
			<output>
				<port id="2" precision="FP32" names="708">
					<dim>1</dim>
					<dim>32</dim>
					<dim>160</dim>
					<dim>160</dim>
				</port>
			</output>
		</layer>
		<layer id="23" name="LeakyRelu_8/weights4243766950" type="Const" version="opset1">
			<data element_type="f32" shape="1" offset="81024" size="4"/>
			<output>
				<port id="0" precision="FP32">
					<dim>1</dim>
				</port>
			</output>
		</layer>
		<layer id="24" name="LeakyRelu_8" type="PReLU" version="opset1">
			<input>
				<port id="0" precision="FP32">
					<dim>1</dim>
					<dim>32</dim>
					<dim>160</dim>
					<dim>160</dim>
				</port>
				<port id="1" precision="FP32">
					<dim>1</dim>
				</port>
			</input>
			<output>
				<port id="2" precision="FP32" names="709">
					<dim>1</dim>
					<dim>32</dim>
					<dim>160</dim>
					<dim>160</dim>
				</port>
			</output>
		</layer>
		<layer id="25" name="Concat_9" type="Concat" version="opset1">
			<data axis="1"/>
			<input>
				<port id="0" precision="FP32">
					<dim>1</dim>
					<dim>64</dim>
					<dim>160</dim>
					<dim>160</dim>
				</port>
				<port id="1" precision="FP32">
					<dim>1</dim>
					<dim>32</dim>
					<dim>160</dim>
					<dim>160</dim>
				</port>
				<port id="2" precision="FP32">
					<dim>1</dim>
					<dim>32</dim>
					<dim>160</dim>
					<dim>160</dim>
				</port>
				<port id="3" precision="FP32">
					<dim>1</dim>
					<dim>32</dim>
					<dim>160</dim>
					<dim>160</dim>
				</port>
			</input>
			<output>
				<port id="4" precision="FP32" names="710">
					<dim>1</dim>
					<dim>160</dim>
					<dim>160</dim>
					<dim>160</dim>
				</port>
			</output>
		</layer>
		<layer id="26" name="RRDB_trunk.0.RDB1.conv4.weight" type="Const" version="opset1">
			<data element_type="f32" shape="32, 160, 3, 3" offset="339332" size="184320"/>
			<output>
				<port id="0" precision="FP32" names="RRDB_trunk.0.RDB1.conv4.weight">
					<dim>32</dim>
					<dim>160</dim>
					<dim>3</dim>
					<dim>3</dim>
				</port>
			</output>
		</layer>
		<layer id="27" name="Conv_10/WithoutBiases" type="Convolution" version="opset1">
			<data strides="1, 1" dilations="1, 1" pads_begin="1, 1" pads_end="1, 1" auto_pad="explicit"/>
			<input>
				<port id="0" precision="FP32">
					<dim>1</dim>
					<dim>160</dim>
					<dim>160</dim>
					<dim>160</dim>
				</port>
				<port id="1" precision="FP32">
					<dim>32</dim>
					<dim>160</dim>
					<dim>3</dim>
					<dim>3</dim>
				</port>
			</input>
			<output>
				<port id="2" precision="FP32">
					<dim>1</dim>
					<dim>32</dim>
					<dim>160</dim>
					<dim>160</dim>
				</port>
			</output>
		</layer>
		<layer id="28" name="Conv_10/Dims15584" type="Const" version="opset1">
			<data element_type="f32" shape="1, 32, 1, 1" offset="523652" size="128"/>
			<output>
				<port id="0" precision="FP32">
					<dim>1</dim>
					<dim>32</dim>
					<dim>1</dim>
					<dim>1</dim>
				</port>
			</output>
		</layer>
		<layer id="29" name="Conv_10" type="Add" version="opset1">
			<data auto_broadcast="numpy"/>
			<input>
				<port id="0" precision="FP32">
					<dim>1</dim>
					<dim>32</dim>
					<dim>160</dim>
					<dim>160</dim>
				</port>
				<port id="1" precision="FP32">
					<dim>1</dim>
					<dim>32</dim>
					<dim>1</dim>
					<dim>1</dim>
				</port>
			</input>
			<output>
				<port id="2" precision="FP32" names="711">
					<dim>1</dim>
					<dim>32</dim>
					<dim>160</dim>
					<dim>160</dim>
				</port>
			</output>
		</layer>
		<layer id="30" name="LeakyRelu_11/weights4240168015" type="Const" version="opset1">
			<data element_type="f32" shape="1" offset="81024" size="4"/>
			<output>
				<port id="0" precision="FP32">
					<dim>1</dim>
				</port>
			</output>
		</layer>
		<layer id="31" name="LeakyRelu_11" type="PReLU" version="opset1">
			<input>
				<port id="0" precision="FP32">
					<dim>1</dim>
					<dim>32</dim>
					<dim>160</dim>
					<dim>160</dim>
				</port>
				<port id="1" precision="FP32">
					<dim>1</dim>
				</port>
			</input>
			<output>
				<port id="2" precision="FP32" names="712">
					<dim>1</dim>
					<dim>32</dim>
					<dim>160</dim>
					<dim>160</dim>
				</port>
			</output>
		</layer>
		<layer id="32" name="Concat_12" type="Concat" version="opset1">
			<data axis="1"/>
			<input>
				<port id="0" precision="FP32">
					<dim>1</dim>
					<dim>64</dim>
					<dim>160</dim>
					<dim>160</dim>
				</port>
				<port id="1" precision="FP32">
					<dim>1</dim>
					<dim>32</dim>
					<dim>160</dim>
					<dim>160</dim>
				</port>
				<port id="2" precision="FP32">
					<dim>1</dim>
					<dim>32</dim>
					<dim>160</dim>
					<dim>160</dim>
				</port>
				<port id="3" precision="FP32">
					<dim>1</dim>
					<dim>32</dim>
					<dim>160</dim>
					<dim>160</dim>
				</port>
				<port id="4" precision="FP32">
					<dim>1</dim>
					<dim>32</dim>
					<dim>160</dim>
					<dim>160</dim>
				</port>
			</input>
			<output>
				<port id="5" precision="FP32" names="713">
					<dim>1</dim>
					<dim>192</dim>
					<dim>160</dim>
					<dim>160</dim>
				</port>
			</output>
		</layer>
		<layer id="33" name="Mul_15/Fused_Mul__copy" type="Const" version="opset1">
			<data element_type="f32" shape="64, 192, 3, 3" offset="523780" size="442368"/>
			<output>
				<port id="0" precision="FP32" names="RRDB_trunk.0.RDB1.conv5.weight">
					<dim>64</dim>
					<dim>192</dim>
					<dim>3</dim>
					<dim>3</dim>
				</port>
			</output>
		</layer>
		<layer id="34" name="Conv_13/WithoutBiases" type="Convolution" version="opset1">
			<data strides="1, 1" dilations="1, 1" pads_begin="1, 1" pads_end="1, 1" auto_pad="explicit"/>
			<input>
				<port id="0" precision="FP32">
					<dim>1</dim>
					<dim>192</dim>
					<dim>160</dim>
					<dim>160</dim>
				</port>
				<port id="1" precision="FP32">
					<dim>64</dim>
					<dim>192</dim>
					<dim>3</dim>
					<dim>3</dim>
				</port>
			</input>
			<output>
				<port id="2" precision="FP32">
					<dim>1</dim>
					<dim>64</dim>
					<dim>160</dim>
					<dim>160</dim>
				</port>
			</output>
		</layer>
		<layer id="35" name="data_add_25562" type="Const" version="opset1">
			<data element_type="f32" shape="1, 64, 1, 1" offset="966148" size="256"/>
			<output>
				<port id="0" precision="FP32">
					<dim>1</dim>
					<dim>64</dim>
					<dim>1</dim>
					<dim>1</dim>
				</port>
			</output>
		</layer>
		<layer id="36" name="Conv_13/Fused_Add_" type="Add" version="opset1">
			<data auto_broadcast="numpy"/>
			<input>
				<port id="0" precision="FP32">
					<dim>1</dim>
					<dim>64</dim>
					<dim>160</dim>
					<dim>160</dim>
				</port>
				<port id="1" precision="FP32">
					<dim>1</dim>
					<dim>64</dim>
					<dim>1</dim>
					<dim>1</dim>
				</port>
			</input>
			<output>
				<port id="2" precision="FP32" names="716">
					<dim>1</dim>
					<dim>64</dim>
					<dim>160</dim>
					<dim>160</dim>
				</port>
			</output>
		</layer>
		<layer id="37" name="Add_16" type="Add" version="opset1">
			<data auto_broadcast="numpy"/>
			<input>
				<port id="0" precision="FP32">
					<dim>1</dim>
					<dim>64</dim>
					<dim>160</dim>
					<dim>160</dim>
				</port>
				<port id="1" precision="FP32">
					<dim>1</dim>
					<dim>64</dim>
					<dim>160</dim>
					<dim>160</dim>
				</port>
			</input>
			<output>
				<port id="2" precision="FP32" names="717">
					<dim>1</dim>
					<dim>64</dim>
					<dim>160</dim>
					<dim>160</dim>
				</port>
			</output>
		</layer>
		<layer id="38" name="RRDB_trunk.0.RDB2.conv1.weight" type="Const" version="opset1">
			<data element_type="f32" shape="32, 64, 3, 3" offset="966404" size="73728"/>
			<output>
				<port id="0" precision="FP32" names="RRDB_trunk.0.RDB2.conv1.weight">
					<dim>32</dim>
					<dim>64</dim>
					<dim>3</dim>
					<dim>3</dim>
				</port>
			</output>
		</layer>
		<layer id="39" name="Conv_17/WithoutBiases" type="Convolution" version="opset1">
			<data strides="1, 1" dilations="1, 1" pads_begin="1, 1" pads_end="1, 1" auto_pad="explicit"/>
			<input>
				<port id="0" precision="FP32">
					<dim>1</dim>
					<dim>64</dim>
					<dim>160</dim>
					<dim>160</dim>
				</port>
				<port id="1" precision="FP32">
					<dim>32</dim>
					<dim>64</dim>
					<dim>3</dim>
					<dim>3</dim>
				</port>
			</input>
			<output>
				<port id="2" precision="FP32">
					<dim>1</dim>
					<dim>32</dim>
					<dim>160</dim>
					<dim>160</dim>
				</port>
			</output>
		</layer>
		<layer id="40" name="Conv_17/Dims14846" type="Const" version="opset1">
			<data element_type="f32" shape="1, 32, 1, 1" offset="1040132" size="128"/>
			<output>
				<port id="0" precision="FP32">
					<dim>1</dim>
					<dim>32</dim>
					<dim>1</dim>
					<dim>1</dim>
				</port>
			</output>
		</layer>
		<layer id="41" name="Conv_17" type="Add" version="opset1">
			<data auto_broadcast="numpy"/>
			<input>
				<port id="0" precision="FP32">
					<dim>1</dim>
					<dim>32</dim>
					<dim>160</dim>
					<dim>160</dim>
				</port>
				<port id="1" precision="FP32">
					<dim>1</dim>
					<dim>32</dim>
					<dim>1</dim>
					<dim>1</dim>
				</port>
			</input>
			<output>
				<port id="2" precision="FP32" names="718">
					<dim>1</dim>
					<dim>32</dim>
					<dim>160</dim>
					<dim>160</dim>
				</port>
			</output>
		</layer>
		<layer id="42" name="LeakyRelu_18/weights4165366542" type="Const" version="opset1">
			<data element_type="f32" shape="1" offset="81024" size="4"/>
			<output>
				<port id="0" precision="FP32">
					<dim>1</dim>
				</port>
			</output>
		</layer>
		<layer id="43" name="LeakyRelu_18" type="PReLU" version="opset1">
			<input>
				<port id="0" precision="FP32">
					<dim>1</dim>
					<dim>32</dim>
					<dim>160</dim>
					<dim>160</dim>
				</port>
				<port id="1" precision="FP32">
					<dim>1</dim>
				</port>
			</input>
			<output>
				<port id="2" precision="FP32" names="719">
					<dim>1</dim>
					<dim>32</dim>
					<dim>160</dim>
					<dim>160</dim>
				</port>
			</output>
		</layer>
		<layer id="44" name="Concat_19" type="Concat" version="opset1">
			<data axis="1"/>
			<input>
				<port id="0" precision="FP32">
					<dim>1</dim>
					<dim>64</dim>
					<dim>160</dim>
					<dim>160</dim>
				</port>
				<port id="1" precision="FP32">
					<dim>1</dim>
					<dim>32</dim>
					<dim>160</dim>
					<dim>160</dim>
				</port>
			</input>
			<output>
				<port id="2" precision="FP32" names="720">
					<dim>1</dim>
					<dim>96</dim>
					<dim>160</dim>
					<dim>160</dim>
				</port>
			</output>
		</layer>
		<layer id="45" name="RRDB_trunk.0.RDB2.conv2.weight" type="Const" version="opset1">
			<data element_type="f32" shape="32, 96, 3, 3" offset="1040260" size="110592"/>
			<output>
				<port id="0" precision="FP32" names="RRDB_trunk.0.RDB2.conv2.weight">
					<dim>32</dim>
					<dim>96</dim>
					<dim>3</dim>
					<dim>3</dim>
				</port>
			</output>
		</layer>
		<layer id="46" name="Conv_20/WithoutBiases" type="Convolution" version="opset1">
			<data strides="1, 1" dilations="1, 1" pads_begin="1, 1" pads_end="1, 1" auto_pad="explicit"/>
			<input>
				<port id="0" precision="FP32">
					<dim>1</dim>
					<dim>96</dim>
					<dim>160</dim>
					<dim>160</dim>
				</port>
				<port id="1" precision="FP32">
					<dim>32</dim>
					<dim>96</dim>
					<dim>3</dim>
					<dim>3</dim>
				</port>
			</input>
			<output>
				<port id="2" precision="FP32">
					<dim>1</dim>
					<dim>32</dim>
					<dim>160</dim>
					<dim>160</dim>
				</port>
			</output>
		</layer>
		<layer id="47" name="Conv_20/Dims16148" type="Const" version="opset1">
			<data element_type="f32" shape="1, 32, 1, 1" offset="1150852" size="128"/>
			<output>
				<port id="0" precision="FP32">
					<dim>1</dim>
					<dim>32</dim>
					<dim>1</dim>
					<dim>1</dim>
				</port>
			</output>
		</layer>
		<layer id="48" name="Conv_20" type="Add" version="opset1">
			<data auto_broadcast="numpy"/>
			<input>
				<port id="0" precision="FP32">
					<dim>1</dim>
					<dim>32</dim>
					<dim>160</dim>
					<dim>160</dim>
				</port>
				<port id="1" precision="FP32">
					<dim>1</dim>
					<dim>32</dim>
					<dim>1</dim>
					<dim>1</dim>
				</port>
			</input>
			<output>
				<port id="2" precision="FP32" names="721">
					<dim>1</dim>
					<dim>32</dim>
					<dim>160</dim>
					<dim>160</dim>
				</port>
			</output>
		</layer>
		<layer id="49" name="LeakyRelu_21/weights4207767742" type="Const" version="opset1">
			<data element_type="f32" shape="1" offset="81024" size="4"/>
			<output>
				<port id="0" precision="FP32">
					<dim>1</dim>
				</port>
			</output>
		</layer>
		<layer id="50" name="LeakyRelu_21" type="PReLU" version="opset1">
			<input>
				<port id="0" precision="FP32">
					<dim>1</dim>
					<dim>32</dim>
					<dim>160</dim>
					<dim>160</dim>
				</port>
				<port id="1" precision="FP32">
					<dim>1</dim>
				</port>
			</input>
			<output>
				<port id="2" precision="FP32" names="722">
					<dim>1</dim>
					<dim>32</dim>
					<dim>160</dim>
					<dim>160</dim>
				</port>
			</output>
		</layer>
		<layer id="51" name="Concat_22" type="Concat" version="opset1">
			<data axis="1"/>
			<input>
				<port id="0" precision="FP32">
					<dim>1</dim>
					<dim>64</dim>
					<dim>160</dim>
					<dim>160</dim>
				</port>
				<port id="1" precision="FP32">
					<dim>1</dim>
					<dim>32</dim>
					<dim>160</dim>
					<dim>160</dim>
				</port>
				<port id="2" precision="FP32">
					<dim>1</dim>
					<dim>32</dim>
					<dim>160</dim>
					<dim>160</dim>
				</port>
			</input>
			<output>
				<port id="3" precision="FP32" names="723">
					<dim>1</dim>
					<dim>128</dim>
					<dim>160</dim>
					<dim>160</dim>
				</port>
			</output>
		</layer>
		<layer id="52" name="RRDB_trunk.0.RDB2.conv3.weight" type="Const" version="opset1">
			<data element_type="f32" shape="32, 128, 3, 3" offset="1150980" size="147456"/>
			<output>
				<port id="0" precision="FP32" names="RRDB_trunk.0.RDB2.conv3.weight">
					<dim>32</dim>
					<dim>128</dim>
					<dim>3</dim>
					<dim>3</dim>
				</port>
			</output>
		</layer>
		<layer id="53" name="Conv_23/WithoutBiases" type="Convolution" version="opset1">
			<data strides="1, 1" dilations="1, 1" pads_begin="1, 1" pads_end="1, 1" auto_pad="explicit"/>
			<input>
				<port id="0" precision="FP32">
					<dim>1</dim>
					<dim>128</dim>
					<dim>160</dim>
					<dim>160</dim>
				</port>
				<port id="1" precision="FP32">
					<dim>32</dim>
					<dim>128</dim>
					<dim>3</dim>
					<dim>3</dim>
				</port>
			</input>
			<output>
				<port id="2" precision="FP32">
					<dim>1</dim>
					<dim>32</dim>
					<dim>160</dim>
					<dim>160</dim>
				</port>
			</output>
		</layer>
		<layer id="54" name="Conv_23/Dims15002" type="Const" version="opset1">
			<data element_type="f32" shape="1, 32, 1, 1" offset="1298436" size="128"/>
			<output>
				<port id="0" precision="FP32">
					<dim>1</dim>
					<dim>32</dim>
					<dim>1</dim>
					<dim>1</dim>
				</port>
			</output>
		</layer>
		<layer id="55" name="Conv_23" type="Add" version="opset1">
			<data auto_broadcast="numpy"/>
			<input>
				<port id="0" precision="FP32">
					<dim>1</dim>
					<dim>32</dim>
					<dim>160</dim>
					<dim>160</dim>
				</port>
				<port id="1" precision="FP32">
					<dim>1</dim>
					<dim>32</dim>
					<dim>1</dim>
					<dim>1</dim>
				</port>
			</input>
			<output>
				<port id="2" precision="FP32" names="724">
					<dim>1</dim>
					<dim>32</dim>
					<dim>160</dim>
					<dim>160</dim>
				</port>
			</output>
		</layer>
		<layer id="56" name="LeakyRelu_24/weights4157367163" type="Const" version="opset1">
			<data element_type="f32" shape="1" offset="81024" size="4"/>
			<output>
				<port id="0" precision="FP32">
					<dim>1</dim>
				</port>
			</output>
		</layer>
		<layer id="57" name="LeakyRelu_24" type="PReLU" version="opset1">
			<input>
				<port id="0" precision="FP32">
					<dim>1</dim>
					<dim>32</dim>
					<dim>160</dim>
					<dim>160</dim>
				</port>
				<port id="1" precision="FP32">
					<dim>1</dim>
				</port>
			</input>
			<output>
				<port id="2" precision="FP32" names="725">
					<dim>1</dim>
					<dim>32</dim>
					<dim>160</dim>
					<dim>160</dim>
				</port>
			</output>
		</layer>
		<layer id="58" name="Concat_25" type="Concat" version="opset1">
			<data axis="1"/>
			<input>
				<port id="0" precision="FP32">
					<dim>1</dim>
					<dim>64</dim>
					<dim>160</dim>
					<dim>160</dim>
				</port>
				<port id="1" precision="FP32">
					<dim>1</dim>
					<dim>32</dim>
					<dim>160</dim>
					<dim>160</dim>
				</port>
				<port id="2" precision="FP32">
					<dim>1</dim>
					<dim>32</dim>
					<dim>160</dim>
					<dim>160</dim>
				</port>
				<port id="3" precision="FP32">
					<dim>1</dim>
					<dim>32</dim>
					<dim>160</dim>
					<dim>160</dim>
				</port>
			</input>
			<output>
				<port id="4" precision="FP32" names="726">
					<dim>1</dim>
					<dim>160</dim>
					<dim>160</dim>
					<dim>160</dim>
				</port>
			</output>
		</layer>
		<layer id="59" name="RRDB_trunk.0.RDB2.conv4.weight" type="Const" version="opset1">
			<data element_type="f32" shape="32, 160, 3, 3" offset="1298564" size="184320"/>
			<output>
				<port id="0" precision="FP32" names="RRDB_trunk.0.RDB2.conv4.weight">
					<dim>32</dim>
					<dim>160</dim>
					<dim>3</dim>
					<dim>3</dim>
				</port>
			</output>
		</layer>
		<layer id="60" name="Conv_26/WithoutBiases" type="Convolution" version="opset1">
			<data strides="1, 1" dilations="1, 1" pads_begin="1, 1" pads_end="1, 1" auto_pad="explicit"/>
			<input>
				<port id="0" precision="FP32">
					<dim>1</dim>
					<dim>160</dim>
					<dim>160</dim>
					<dim>160</dim>
				</port>
				<port id="1" precision="FP32">
					<dim>32</dim>
					<dim>160</dim>
					<dim>3</dim>
					<dim>3</dim>
				</port>
			</input>
			<output>
				<port id="2" precision="FP32">
					<dim>1</dim>
					<dim>32</dim>
					<dim>160</dim>
					<dim>160</dim>
				</port>
			</output>
		</layer>
		<layer id="61" name="Conv_26/Dims15284" type="Const" version="opset1">
			<data element_type="f32" shape="1, 32, 1, 1" offset="1482884" size="128"/>
			<output>
				<port id="0" precision="FP32">
					<dim>1</dim>
					<dim>32</dim>
					<dim>1</dim>
					<dim>1</dim>
				</port>
			</output>
		</layer>
		<layer id="62" name="Conv_26" type="Add" version="opset1">
			<data auto_broadcast="numpy"/>
			<input>
				<port id="0" precision="FP32">
					<dim>1</dim>
					<dim>32</dim>
					<dim>160</dim>
					<dim>160</dim>
				</port>
				<port id="1" precision="FP32">
					<dim>1</dim>
					<dim>32</dim>
					<dim>1</dim>
					<dim>1</dim>
				</port>
			</input>
			<output>
				<port id="2" precision="FP32" names="727">
					<dim>1</dim>
					<dim>32</dim>
					<dim>160</dim>
					<dim>160</dim>
				</port>
			</output>
		</layer>
		<layer id="63" name="LeakyRelu_27/weights4224568666" type="Const" version="opset1">
			<data element_type="f32" shape="1" offset="81024" size="4"/>
			<output>
				<port id="0" precision="FP32">
					<dim>1</dim>
				</port>
			</output>
		</layer>
		<layer id="64" name="LeakyRelu_27" type="PReLU" version="opset1">
			<input>
				<port id="0" precision="FP32">
					<dim>1</dim>
					<dim>32</dim>
					<dim>160</dim>
					<dim>160</dim>
				</port>
				<port id="1" precision="FP32">
					<dim>1</dim>
				</port>
			</input>
			<output>
				<port id="2" precision="FP32" names="728">
					<dim>1</dim>
					<dim>32</dim>
					<dim>160</dim>
					<dim>160</dim>
				</port>
			</output>
		</layer>
		<layer id="65" name="Concat_28" type="Concat" version="opset1">
			<data axis="1"/>
			<input>
				<port id="0" precision="FP32">
					<dim>1</dim>
					<dim>64</dim>
					<dim>160</dim>
					<dim>160</dim>
				</port>
				<port id="1" precision="FP32">
					<dim>1</dim>
					<dim>32</dim>
					<dim>160</dim>
					<dim>160</dim>
				</port>
				<port id="2" precision="FP32">
					<dim>1</dim>
					<dim>32</dim>
					<dim>160</dim>
					<dim>160</dim>
				</port>
				<port id="3" precision="FP32">
					<dim>1</dim>
					<dim>32</dim>
					<dim>160</dim>
					<dim>160</dim>
				</port>
				<port id="4" precision="FP32">
					<dim>1</dim>
					<dim>32</dim>
					<dim>160</dim>
					<dim>160</dim>
				</port>
			</input>
			<output>
				<port id="5" precision="FP32" names="729">
					<dim>1</dim>
					<dim>192</dim>
					<dim>160</dim>
					<dim>160</dim>
				</port>
			</output>
		</layer>
		<layer id="66" name="Mul_31/Fused_Mul__copy" type="Const" version="opset1">
			<data element_type="f32" shape="64, 192, 3, 3" offset="1483012" size="442368"/>
			<output>
				<port id="0" precision="FP32" names="RRDB_trunk.0.RDB2.conv5.weight">
					<dim>64</dim>
					<dim>192</dim>
					<dim>3</dim>
					<dim>3</dim>
				</port>
			</output>
		</layer>
		<layer id="67" name="Conv_29/WithoutBiases" type="Convolution" version="opset1">
			<data strides="1, 1" dilations="1, 1" pads_begin="1, 1" pads_end="1, 1" auto_pad="explicit"/>
			<input>
				<port id="0" precision="FP32">
					<dim>1</dim>
					<dim>192</dim>
					<dim>160</dim>
					<dim>160</dim>
				</port>
				<port id="1" precision="FP32">
					<dim>64</dim>
					<dim>192</dim>
					<dim>3</dim>
					<dim>3</dim>
				</port>
			</input>
			<output>
				<port id="2" precision="FP32">
					<dim>1</dim>
					<dim>64</dim>
					<dim>160</dim>
					<dim>160</dim>
				</port>
			</output>
		</layer>
		<layer id="68" name="data_add_2556525570" type="Const" version="opset1">
			<data element_type="f32" shape="1, 64, 1, 1" offset="1925380" size="256"/>
			<output>
				<port id="0" precision="FP32">
					<dim>1</dim>
					<dim>64</dim>
					<dim>1</dim>
					<dim>1</dim>
				</port>
			</output>
		</layer>
		<layer id="69" name="Conv_29/Fused_Add_" type="Add" version="opset1">
			<data auto_broadcast="numpy"/>
			<input>
				<port id="0" precision="FP32">
					<dim>1</dim>
					<dim>64</dim>
					<dim>160</dim>
					<dim>160</dim>
				</port>
				<port id="1" precision="FP32">
					<dim>1</dim>
					<dim>64</dim>
					<dim>1</dim>
					<dim>1</dim>
				</port>
			</input>
			<output>
				<port id="2" precision="FP32" names="732">
					<dim>1</dim>
					<dim>64</dim>
					<dim>160</dim>
					<dim>160</dim>
				</port>
			</output>
		</layer>
		<layer id="70" name="Add_32" type="Add" version="opset1">
			<data auto_broadcast="numpy"/>
			<input>
				<port id="0" precision="FP32">
					<dim>1</dim>
					<dim>64</dim>
					<dim>160</dim>
					<dim>160</dim>
				</port>
				<port id="1" precision="FP32">
					<dim>1</dim>
					<dim>64</dim>
					<dim>160</dim>
					<dim>160</dim>
				</port>
			</input>
			<output>
				<port id="2" precision="FP32" names="733">
					<dim>1</dim>
					<dim>64</dim>
					<dim>160</dim>
					<dim>160</dim>
				</port>
			</output>
		</layer>
		<layer id="71" name="RRDB_trunk.0.RDB3.conv1.weight" type="Const" version="opset1">
			<data element_type="f32" shape="32, 64, 3, 3" offset="1925636" size="73728"/>
			<output>
				<port id="0" precision="FP32" names="RRDB_trunk.0.RDB3.conv1.weight">
					<dim>32</dim>
					<dim>64</dim>
					<dim>3</dim>
					<dim>3</dim>
				</port>
			</output>
		</layer>
		<layer id="72" name="Conv_33/WithoutBiases" type="Convolution" version="opset1">
			<data strides="1, 1" dilations="1, 1" pads_begin="1, 1" pads_end="1, 1" auto_pad="explicit"/>
			<input>
				<port id="0" precision="FP32">
					<dim>1</dim>
					<dim>64</dim>
					<dim>160</dim>
					<dim>160</dim>
				</port>
				<port id="1" precision="FP32">
					<dim>32</dim>
					<dim>64</dim>
					<dim>3</dim>
					<dim>3</dim>
				</port>
			</input>
			<output>
				<port id="2" precision="FP32">
					<dim>1</dim>
					<dim>32</dim>
					<dim>160</dim>
					<dim>160</dim>
				</port>
			</output>
		</layer>
		<layer id="73" name="Conv_33/Dims15548" type="Const" version="opset1">
			<data element_type="f32" shape="1, 32, 1, 1" offset="1999364" size="128"/>
			<output>
				<port id="0" precision="FP32">
					<dim>1</dim>
					<dim>32</dim>
					<dim>1</dim>
					<dim>1</dim>
				</port>
			</output>
		</layer>
		<layer id="74" name="Conv_33" type="Add" version="opset1">
			<data auto_broadcast="numpy"/>
			<input>
				<port id="0" precision="FP32">
					<dim>1</dim>
					<dim>32</dim>
					<dim>160</dim>
					<dim>160</dim>
				</port>
				<port id="1" precision="FP32">
					<dim>1</dim>
					<dim>32</dim>
					<dim>1</dim>
					<dim>1</dim>
				</port>
			</input>
			<output>
				<port id="2" precision="FP32" names="734">
					<dim>1</dim>
					<dim>32</dim>
					<dim>160</dim>
					<dim>160</dim>
				</port>
			</output>
		</layer>
		<layer id="75" name="LeakyRelu_34/weights4189767736" type="Const" version="opset1">
			<data element_type="f32" shape="1" offset="81024" size="4"/>
			<output>
				<port id="0" precision="FP32">
					<dim>1</dim>
				</port>
			</output>
		</layer>
		<layer id="76" name="LeakyRelu_34" type="PReLU" version="opset1">
			<input>
				<port id="0" precision="FP32">
					<dim>1</dim>
					<dim>32</dim>
					<dim>160</dim>
					<dim>160</dim>
				</port>
				<port id="1" precision="FP32">
					<dim>1</dim>
				</port>
			</input>
			<output>
				<port id="2" precision="FP32" names="735">
					<dim>1</dim>
					<dim>32</dim>
					<dim>160</dim>
					<dim>160</dim>
				</port>
			</output>
		</layer>
		<layer id="77" name="Concat_35" type="Concat" version="opset1">
			<data axis="1"/>
			<input>
				<port id="0" precision="FP32">
					<dim>1</dim>
					<dim>64</dim>
					<dim>160</dim>
					<dim>160</dim>
				</port>
				<port id="1" precision="FP32">
					<dim>1</dim>
					<dim>32</dim>
					<dim>160</dim>
					<dim>160</dim>
				</port>
			</input>
			<output>
				<port id="2" precision="FP32" names="736">
					<dim>1</dim>
					<dim>96</dim>
					<dim>160</dim>
					<dim>160</dim>
				</port>
			</output>
		</layer>
		<layer id="78" name="RRDB_trunk.0.RDB3.conv2.weight" type="Const" version="opset1">
			<data element_type="f32" shape="32, 96, 3, 3" offset="1999492" size="110592"/>
			<output>
				<port id="0" precision="FP32" names="RRDB_trunk.0.RDB3.conv2.weight">
					<dim>32</dim>
					<dim>96</dim>
					<dim>3</dim>
					<dim>3</dim>
				</port>
			</output>
		</layer>
		<layer id="79" name="Conv_36/WithoutBiases" type="Convolution" version="opset1">
			<data strides="1, 1" dilations="1, 1" pads_begin="1, 1" pads_end="1, 1" auto_pad="explicit"/>
			<input>
				<port id="0" precision="FP32">
					<dim>1</dim>
					<dim>96</dim>
					<dim>160</dim>
					<dim>160</dim>
				</port>
				<port id="1" precision="FP32">
					<dim>32</dim>
					<dim>96</dim>
					<dim>3</dim>
					<dim>3</dim>
				</port>
			</input>
			<output>
				<port id="2" precision="FP32">
					<dim>1</dim>
					<dim>32</dim>
					<dim>160</dim>
					<dim>160</dim>
				</port>
			</output>
		</layer>
		<layer id="80" name="Conv_36/Dims15326" type="Const" version="opset1">
			<data element_type="f32" shape="1, 32, 1, 1" offset="2110084" size="128"/>
			<output>
				<port id="0" precision="FP32">
					<dim>1</dim>
					<dim>32</dim>
					<dim>1</dim>
					<dim>1</dim>
				</port>
			</output>
		</layer>
		<layer id="81" name="Conv_36" type="Add" version="opset1">
			<data auto_broadcast="numpy"/>
			<input>
				<port id="0" precision="FP32">
					<dim>1</dim>
					<dim>32</dim>
					<dim>160</dim>
					<dim>160</dim>
				</port>
				<port id="1" precision="FP32">
					<dim>1</dim>
					<dim>32</dim>
					<dim>1</dim>
					<dim>1</dim>
				</port>
			</input>
			<output>
				<port id="2" precision="FP32" names="737">
					<dim>1</dim>
					<dim>32</dim>
					<dim>160</dim>
					<dim>160</dim>
				</port>
			</output>
		</layer>
		<layer id="82" name="LeakyRelu_37/weights4153367379" type="Const" version="opset1">
			<data element_type="f32" shape="1" offset="81024" size="4"/>
			<output>
				<port id="0" precision="FP32">
					<dim>1</dim>
				</port>
			</output>
		</layer>
		<layer id="83" name="LeakyRelu_37" type="PReLU" version="opset1">
			<input>
				<port id="0" precision="FP32">
					<dim>1</dim>
					<dim>32</dim>
					<dim>160</dim>
					<dim>160</dim>
				</port>
				<port id="1" precision="FP32">
					<dim>1</dim>
				</port>
			</input>
			<output>
				<port id="2" precision="FP32" names="738">
					<dim>1</dim>
					<dim>32</dim>
					<dim>160</dim>
					<dim>160</dim>
				</port>
			</output>
		</layer>
		<layer id="84" name="Concat_38" type="Concat" version="opset1">
			<data axis="1"/>
			<input>
				<port id="0" precision="FP32">
					<dim>1</dim>
					<dim>64</dim>
					<dim>160</dim>
					<dim>160</dim>
				</port>
				<port id="1" precision="FP32">
					<dim>1</dim>
					<dim>32</dim>
					<dim>160</dim>
					<dim>160</dim>
				</port>
				<port id="2" precision="FP32">
					<dim>1</dim>
					<dim>32</dim>
					<dim>160</dim>
					<dim>160</dim>
				</port>
			</input>
			<output>
				<port id="3" precision="FP32" names="739">
					<dim>1</dim>
					<dim>128</dim>
					<dim>160</dim>
					<dim>160</dim>
				</port>
			</output>
		</layer>
		<layer id="85" name="RRDB_trunk.0.RDB3.conv3.weight" type="Const" version="opset1">
			<data element_type="f32" shape="32, 128, 3, 3" offset="2110212" size="147456"/>
			<output>
				<port id="0" precision="FP32" names="RRDB_trunk.0.RDB3.conv3.weight">
					<dim>32</dim>
					<dim>128</dim>
					<dim>3</dim>
					<dim>3</dim>
				</port>
			</output>
		</layer>
		<layer id="86" name="Conv_39/WithoutBiases" type="Convolution" version="opset1">
			<data strides="1, 1" dilations="1, 1" pads_begin="1, 1" pads_end="1, 1" auto_pad="explicit"/>
			<input>
				<port id="0" precision="FP32">
					<dim>1</dim>
					<dim>128</dim>
					<dim>160</dim>
					<dim>160</dim>
				</port>
				<port id="1" precision="FP32">
					<dim>32</dim>
					<dim>128</dim>
					<dim>3</dim>
					<dim>3</dim>
				</port>
			</input>
			<output>
				<port id="2" precision="FP32">
					<dim>1</dim>
					<dim>32</dim>
					<dim>160</dim>
					<dim>160</dim>
				</port>
			</output>
		</layer>
		<layer id="87" name="Conv_39/Dims14744" type="Const" version="opset1">
			<data element_type="f32" shape="1, 32, 1, 1" offset="2257668" size="128"/>
			<output>
				<port id="0" precision="FP32">
					<dim>1</dim>
					<dim>32</dim>
					<dim>1</dim>
					<dim>1</dim>
				</port>
			</output>
		</layer>
		<layer id="88" name="Conv_39" type="Add" version="opset1">
			<data auto_broadcast="numpy"/>
			<input>
				<port id="0" precision="FP32">
					<dim>1</dim>
					<dim>32</dim>
					<dim>160</dim>
					<dim>160</dim>
				</port>
				<port id="1" precision="FP32">
					<dim>1</dim>
					<dim>32</dim>
					<dim>1</dim>
					<dim>1</dim>
				</port>
			</input>
			<output>
				<port id="2" precision="FP32" names="740">
					<dim>1</dim>
					<dim>32</dim>
					<dim>160</dim>
					<dim>160</dim>
				</port>
			</output>
		</layer>
		<layer id="89" name="LeakyRelu_40/weights4208968825" type="Const" version="opset1">
			<data element_type="f32" shape="1" offset="81024" size="4"/>
			<output>
				<port id="0" precision="FP32">
					<dim>1</dim>
				</port>
			</output>
		</layer>
		<layer id="90" name="LeakyRelu_40" type="PReLU" version="opset1">
			<input>
				<port id="0" precision="FP32">
					<dim>1</dim>
					<dim>32</dim>
					<dim>160</dim>
					<dim>160</dim>
				</port>
				<port id="1" precision="FP32">
					<dim>1</dim>
				</port>
			</input>
			<output>
				<port id="2" precision="FP32" names="741">
					<dim>1</dim>
					<dim>32</dim>
					<dim>160</dim>
					<dim>160</dim>
				</port>
			</output>
		</layer>
		<layer id="91" name="Concat_41" type="Concat" version="opset1">
			<data axis="1"/>
			<input>
				<port id="0" precision="FP32">
					<dim>1</dim>
					<dim>64</dim>
					<dim>160</dim>
					<dim>160</dim>
				</port>
				<port id="1" precision="FP32">
					<dim>1</dim>
					<dim>32</dim>
					<dim>160</dim>
					<dim>160</dim>
				</port>
				<port id="2" precision="FP32">
					<dim>1</dim>
					<dim>32</dim>
					<dim>160</dim>
					<dim>160</dim>
				</port>
				<port id="3" precision="FP32">
					<dim>1</dim>
					<dim>32</dim>
					<dim>160</dim>
					<dim>160</dim>
				</port>
			</input>
			<output>
				<port id="4" precision="FP32" names="742">
					<dim>1</dim>
					<dim>160</dim>
					<dim>160</dim>
					<dim>160</dim>
				</port>
			</output>
		</layer>
		<layer id="92" name="RRDB_trunk.0.RDB3.conv4.weight" type="Const" version="opset1">
			<data element_type="f32" shape="32, 160, 3, 3" offset="2257796" size="184320"/>
			<output>
				<port id="0" precision="FP32" names="RRDB_trunk.0.RDB3.conv4.weight">
					<dim>32</dim>
					<dim>160</dim>
					<dim>3</dim>
					<dim>3</dim>
				</port>
			</output>
		</layer>
		<layer id="93" name="Conv_42/WithoutBiases" type="Convolution" version="opset1">
			<data strides="1, 1" dilations="1, 1" pads_begin="1, 1" pads_end="1, 1" auto_pad="explicit"/>
			<input>
				<port id="0" precision="FP32">
					<dim>1</dim>
					<dim>160</dim>
					<dim>160</dim>
					<dim>160</dim>
				</port>
				<port id="1" precision="FP32">
					<dim>32</dim>
					<dim>160</dim>
					<dim>3</dim>
					<dim>3</dim>
				</port>
			</input>
			<output>
				<port id="2" precision="FP32">
					<dim>1</dim>
					<dim>32</dim>
					<dim>160</dim>
					<dim>160</dim>
				</port>
			</output>
		</layer>
		<layer id="94" name="Conv_42/Dims15164" type="Const" version="opset1">
			<data element_type="f32" shape="1, 32, 1, 1" offset="2442116" size="128"/>
			<output>
				<port id="0" precision="FP32">
					<dim>1</dim>
					<dim>32</dim>
					<dim>1</dim>
					<dim>1</dim>
				</port>
			</output>
		</layer>
		<layer id="95" name="Conv_42" type="Add" version="opset1">
			<data auto_broadcast="numpy"/>
			<input>
				<port id="0" precision="FP32">
					<dim>1</dim>
					<dim>32</dim>
					<dim>160</dim>
					<dim>160</dim>
				</port>
				<port id="1" precision="FP32">
					<dim>1</dim>
					<dim>32</dim>
					<dim>1</dim>
					<dim>1</dim>
				</port>
			</input>
			<output>
				<port id="2" precision="FP32" names="743">
					<dim>1</dim>
					<dim>32</dim>
					<dim>160</dim>
					<dim>160</dim>
				</port>
			</output>
		</layer>
		<layer id="96" name="LeakyRelu_43/weights4259366467" type="Const" version="opset1">
			<data element_type="f32" shape="1" offset="81024" size="4"/>
			<output>
				<port id="0" precision="FP32">
					<dim>1</dim>
				</port>
			</output>
		</layer>
		<layer id="97" name="LeakyRelu_43" type="PReLU" version="opset1">
			<input>
				<port id="0" precision="FP32">
					<dim>1</dim>
					<dim>32</dim>
					<dim>160</dim>
					<dim>160</dim>
				</port>
				<port id="1" precision="FP32">
					<dim>1</dim>
				</port>
			</input>
			<output>
				<port id="2" precision="FP32" names="744">
					<dim>1</dim>
					<dim>32</dim>
					<dim>160</dim>
					<dim>160</dim>
				</port>
			</output>
		</layer>
		<layer id="98" name="Concat_44" type="Concat" version="opset1">
			<data axis="1"/>
			<input>
				<port id="0" precision="FP32">
					<dim>1</dim>
					<dim>64</dim>
					<dim>160</dim>
					<dim>160</dim>
				</port>
				<port id="1" precision="FP32">
					<dim>1</dim>
					<dim>32</dim>
					<dim>160</dim>
					<dim>160</dim>
				</port>
				<port id="2" precision="FP32">
					<dim>1</dim>
					<dim>32</dim>
					<dim>160</dim>
					<dim>160</dim>
				</port>
				<port id="3" precision="FP32">
					<dim>1</dim>
					<dim>32</dim>
					<dim>160</dim>
					<dim>160</dim>
				</port>
				<port id="4" precision="FP32">
					<dim>1</dim>
					<dim>32</dim>
					<dim>160</dim>
					<dim>160</dim>
				</port>
			</input>
			<output>
				<port id="5" precision="FP32" names="745">
					<dim>1</dim>
					<dim>192</dim>
					<dim>160</dim>
					<dim>160</dim>
				</port>
			</output>
		</layer>
		<layer id="99" name="Mul_47/Fused_Mul__copy" type="Const" version="opset1">
			<data element_type="f32" shape="64, 192, 3, 3" offset="2442244" size="442368"/>
			<output>
				<port id="0" precision="FP32" names="RRDB_trunk.0.RDB3.conv5.weight">
					<dim>64</dim>
					<dim>192</dim>
					<dim>3</dim>
					<dim>3</dim>
				</port>
			</output>
		</layer>
		<layer id="100" name="Conv_45/WithoutBiases" type="Convolution" version="opset1">
			<data strides="1, 1" dilations="1, 1" pads_begin="1, 1" pads_end="1, 1" auto_pad="explicit"/>
			<input>
				<port id="0" precision="FP32">
					<dim>1</dim>
					<dim>192</dim>
					<dim>160</dim>
					<dim>160</dim>
				</port>
				<port id="1" precision="FP32">
					<dim>64</dim>
					<dim>192</dim>
					<dim>3</dim>
					<dim>3</dim>
				</port>
			</input>
			<output>
				<port id="2" precision="FP32">
					<dim>1</dim>
					<dim>64</dim>
					<dim>160</dim>
					<dim>160</dim>
				</port>
			</output>
		</layer>
		<layer id="101" name="data_add_2557325578" type="Const" version="opset1">
			<data element_type="f32" shape="1, 64, 1, 1" offset="2884612" size="256"/>
			<output>
				<port id="0" precision="FP32">
					<dim>1</dim>
					<dim>64</dim>
					<dim>1</dim>
					<dim>1</dim>
				</port>
			</output>
		</layer>
		<layer id="102" name="Conv_45/Fused_Add_" type="Add" version="opset1">
			<data auto_broadcast="numpy"/>
			<input>
				<port id="0" precision="FP32">
					<dim>1</dim>
					<dim>64</dim>
					<dim>160</dim>
					<dim>160</dim>
				</port>
				<port id="1" precision="FP32">
					<dim>1</dim>
					<dim>64</dim>
					<dim>1</dim>
					<dim>1</dim>
				</port>
			</input>
			<output>
				<port id="2" precision="FP32" names="748">
					<dim>1</dim>
					<dim>64</dim>
					<dim>160</dim>
					<dim>160</dim>
				</port>
			</output>
		</layer>
		<layer id="103" name="Add_48" type="Add" version="opset1">
			<data auto_broadcast="numpy"/>
			<input>
				<port id="0" precision="FP32">
					<dim>1</dim>
					<dim>64</dim>
					<dim>160</dim>
					<dim>160</dim>
				</port>
				<port id="1" precision="FP32">
					<dim>1</dim>
					<dim>64</dim>
					<dim>160</dim>
					<dim>160</dim>
				</port>
			</input>
			<output>
				<port id="2" precision="FP32" names="749">
					<dim>1</dim>
					<dim>64</dim>
					<dim>160</dim>
					<dim>160</dim>
				</port>
			</output>
		</layer>
		<layer id="104" name="71569296" type="Const" version="opset1">
			<data element_type="f32" shape="1, 1, 1, 1" offset="81024" size="4"/>
			<output>
				<port id="0" precision="FP32" names="715">
					<dim>1</dim>
					<dim>1</dim>
					<dim>1</dim>
					<dim>1</dim>
				</port>
			</output>
		</layer>
		<layer id="105" name="Mul_50" type="Multiply" version="opset1">
			<data auto_broadcast="numpy"/>
			<input>
				<port id="0" precision="FP32">
					<dim>1</dim>
					<dim>64</dim>
					<dim>160</dim>
					<dim>160</dim>
				</port>
				<port id="1" precision="FP32">
					<dim>1</dim>
					<dim>1</dim>
					<dim>1</dim>
					<dim>1</dim>
				</port>
			</input>
			<output>
				<port id="2" precision="FP32" names="751">
					<dim>1</dim>
					<dim>64</dim>
					<dim>160</dim>
					<dim>160</dim>
				</port>
			</output>
		</layer>
		<layer id="106" name="Add_51" type="Add" version="opset1">
			<data auto_broadcast="numpy"/>
			<input>
				<port id="0" precision="FP32">
					<dim>1</dim>
					<dim>64</dim>
					<dim>160</dim>
					<dim>160</dim>
				</port>
				<port id="1" precision="FP32">
					<dim>1</dim>
					<dim>64</dim>
					<dim>160</dim>
					<dim>160</dim>
				</port>
			</input>
			<output>
				<port id="2" precision="FP32" names="752">
					<dim>1</dim>
					<dim>64</dim>
					<dim>160</dim>
					<dim>160</dim>
				</port>
			</output>
		</layer>
		<layer id="107" name="RRDB_trunk.1.RDB1.conv1.weight" type="Const" version="opset1">
			<data element_type="f32" shape="32, 64, 3, 3" offset="2884868" size="73728"/>
			<output>
				<port id="0" precision="FP32" names="RRDB_trunk.1.RDB1.conv1.weight">
					<dim>32</dim>
					<dim>64</dim>
					<dim>3</dim>
					<dim>3</dim>
				</port>
			</output>
		</layer>
		<layer id="108" name="Conv_52/WithoutBiases" type="Convolution" version="opset1">
			<data strides="1, 1" dilations="1, 1" pads_begin="1, 1" pads_end="1, 1" auto_pad="explicit"/>
			<input>
				<port id="0" precision="FP32">
					<dim>1</dim>
					<dim>64</dim>
					<dim>160</dim>
					<dim>160</dim>
				</port>
				<port id="1" precision="FP32">
					<dim>32</dim>
					<dim>64</dim>
					<dim>3</dim>
					<dim>3</dim>
				</port>
			</input>
			<output>
				<port id="2" precision="FP32">
					<dim>1</dim>
					<dim>32</dim>
					<dim>160</dim>
					<dim>160</dim>
				</port>
			</output>
		</layer>
		<layer id="109" name="Conv_52/Dims16604" type="Const" version="opset1">
			<data element_type="f32" shape="1, 32, 1, 1" offset="2958596" size="128"/>
			<output>
				<port id="0" precision="FP32">
					<dim>1</dim>
					<dim>32</dim>
					<dim>1</dim>
					<dim>1</dim>
				</port>
			</output>
		</layer>
		<layer id="110" name="Conv_52" type="Add" version="opset1">
			<data auto_broadcast="numpy"/>
			<input>
				<port id="0" precision="FP32">
					<dim>1</dim>
					<dim>32</dim>
					<dim>160</dim>
					<dim>160</dim>
				</port>
				<port id="1" precision="FP32">
					<dim>1</dim>
					<dim>32</dim>
					<dim>1</dim>
					<dim>1</dim>
				</port>
			</input>
			<output>
				<port id="2" precision="FP32" names="753">
					<dim>1</dim>
					<dim>32</dim>
					<dim>160</dim>
					<dim>160</dim>
				</port>
			</output>
		</layer>
		<layer id="111" name="LeakyRelu_53/weights4256168627" type="Const" version="opset1">
			<data element_type="f32" shape="1" offset="81024" size="4"/>
			<output>
				<port id="0" precision="FP32">
					<dim>1</dim>
				</port>
			</output>
		</layer>
		<layer id="112" name="LeakyRelu_53" type="PReLU" version="opset1">
			<input>
				<port id="0" precision="FP32">
					<dim>1</dim>
					<dim>32</dim>
					<dim>160</dim>
					<dim>160</dim>
				</port>
				<port id="1" precision="FP32">
					<dim>1</dim>
				</port>
			</input>
			<output>
				<port id="2" precision="FP32" names="754">
					<dim>1</dim>
					<dim>32</dim>
					<dim>160</dim>
					<dim>160</dim>
				</port>
			</output>
		</layer>
		<layer id="113" name="Concat_54" type="Concat" version="opset1">
			<data axis="1"/>
			<input>
				<port id="0" precision="FP32">
					<dim>1</dim>
					<dim>64</dim>
					<dim>160</dim>
					<dim>160</dim>
				</port>
				<port id="1" precision="FP32">
					<dim>1</dim>
					<dim>32</dim>
					<dim>160</dim>
					<dim>160</dim>
				</port>
			</input>
			<output>
				<port id="2" precision="FP32" names="755">
					<dim>1</dim>
					<dim>96</dim>
					<dim>160</dim>
					<dim>160</dim>
				</port>
			</output>
		</layer>
		<layer id="114" name="RRDB_trunk.1.RDB1.conv2.weight" type="Const" version="opset1">
			<data element_type="f32" shape="32, 96, 3, 3" offset="2958724" size="110592"/>
			<output>
				<port id="0" precision="FP32" names="RRDB_trunk.1.RDB1.conv2.weight">
					<dim>32</dim>
					<dim>96</dim>
					<dim>3</dim>
					<dim>3</dim>
				</port>
			</output>
		</layer>
		<layer id="115" name="Conv_55/WithoutBiases" type="Convolution" version="opset1">
			<data strides="1, 1" dilations="1, 1" pads_begin="1, 1" pads_end="1, 1" auto_pad="explicit"/>
			<input>
				<port id="0" precision="FP32">
					<dim>1</dim>
					<dim>96</dim>
					<dim>160</dim>
					<dim>160</dim>
				</port>
				<port id="1" precision="FP32">
					<dim>32</dim>
					<dim>96</dim>
					<dim>3</dim>
					<dim>3</dim>
				</port>
			</input>
			<output>
				<port id="2" precision="FP32">
					<dim>1</dim>
					<dim>32</dim>
					<dim>160</dim>
					<dim>160</dim>
				</port>
			</output>
		</layer>
		<layer id="116" name="Conv_55/Dims16580" type="Const" version="opset1">
			<data element_type="f32" shape="1, 32, 1, 1" offset="3069316" size="128"/>
			<output>
				<port id="0" precision="FP32">
					<dim>1</dim>
					<dim>32</dim>
					<dim>1</dim>
					<dim>1</dim>
				</port>
			</output>
		</layer>
		<layer id="117" name="Conv_55" type="Add" version="opset1">
			<data auto_broadcast="numpy"/>
			<input>
				<port id="0" precision="FP32">
					<dim>1</dim>
					<dim>32</dim>
					<dim>160</dim>
					<dim>160</dim>
				</port>
				<port id="1" precision="FP32">
					<dim>1</dim>
					<dim>32</dim>
					<dim>1</dim>
					<dim>1</dim>
				</port>
			</input>
			<output>
				<port id="2" precision="FP32" names="756">
					<dim>1</dim>
					<dim>32</dim>
					<dim>160</dim>
					<dim>160</dim>
				</port>
			</output>
		</layer>
		<layer id="118" name="LeakyRelu_56/weights4213768585" type="Const" version="opset1">
			<data element_type="f32" shape="1" offset="81024" size="4"/>
			<output>
				<port id="0" precision="FP32">
					<dim>1</dim>
				</port>
			</output>
		</layer>
		<layer id="119" name="LeakyRelu_56" type="PReLU" version="opset1">
			<input>
				<port id="0" precision="FP32">
					<dim>1</dim>
					<dim>32</dim>
					<dim>160</dim>
					<dim>160</dim>
				</port>
				<port id="1" precision="FP32">
					<dim>1</dim>
				</port>
			</input>
			<output>
				<port id="2" precision="FP32" names="757">
					<dim>1</dim>
					<dim>32</dim>
					<dim>160</dim>
					<dim>160</dim>
				</port>
			</output>
		</layer>
		<layer id="120" name="Concat_57" type="Concat" version="opset1">
			<data axis="1"/>
			<input>
				<port id="0" precision="FP32">
					<dim>1</dim>
					<dim>64</dim>
					<dim>160</dim>
					<dim>160</dim>
				</port>
				<port id="1" precision="FP32">
					<dim>1</dim>
					<dim>32</dim>
					<dim>160</dim>
					<dim>160</dim>
				</port>
				<port id="2" precision="FP32">
					<dim>1</dim>
					<dim>32</dim>
					<dim>160</dim>
					<dim>160</dim>
				</port>
			</input>
			<output>
				<port id="3" precision="FP32" names="758">
					<dim>1</dim>
					<dim>128</dim>
					<dim>160</dim>
					<dim>160</dim>
				</port>
			</output>
		</layer>
		<layer id="121" name="RRDB_trunk.1.RDB1.conv3.weight" type="Const" version="opset1">
			<data element_type="f32" shape="32, 128, 3, 3" offset="3069444" size="147456"/>
			<output>
				<port id="0" precision="FP32" names="RRDB_trunk.1.RDB1.conv3.weight">
					<dim>32</dim>
					<dim>128</dim>
					<dim>3</dim>
					<dim>3</dim>
				</port>
			</output>
		</layer>
		<layer id="122" name="Conv_58/WithoutBiases" type="Convolution" version="opset1">
			<data strides="1, 1" dilations="1, 1" pads_begin="1, 1" pads_end="1, 1" auto_pad="explicit"/>
			<input>
				<port id="0" precision="FP32">
					<dim>1</dim>
					<dim>128</dim>
					<dim>160</dim>
					<dim>160</dim>
				</port>
				<port id="1" precision="FP32">
					<dim>32</dim>
					<dim>128</dim>
					<dim>3</dim>
					<dim>3</dim>
				</port>
			</input>
			<output>
				<port id="2" precision="FP32">
					<dim>1</dim>
					<dim>32</dim>
					<dim>160</dim>
					<dim>160</dim>
				</port>
			</output>
		</layer>
		<layer id="123" name="Conv_58/Dims15050" type="Const" version="opset1">
			<data element_type="f32" shape="1, 32, 1, 1" offset="3216900" size="128"/>
			<output>
				<port id="0" precision="FP32">
					<dim>1</dim>
					<dim>32</dim>
					<dim>1</dim>
					<dim>1</dim>
				</port>
			</output>
		</layer>
		<layer id="124" name="Conv_58" type="Add" version="opset1">
			<data auto_broadcast="numpy"/>
			<input>
				<port id="0" precision="FP32">
					<dim>1</dim>
					<dim>32</dim>
					<dim>160</dim>
					<dim>160</dim>
				</port>
				<port id="1" precision="FP32">
					<dim>1</dim>
					<dim>32</dim>
					<dim>1</dim>
					<dim>1</dim>
				</port>
			</input>
			<output>
				<port id="2" precision="FP32" names="759">
					<dim>1</dim>
					<dim>32</dim>
					<dim>160</dim>
					<dim>160</dim>
				</port>
			</output>
		</layer>
		<layer id="125" name="LeakyRelu_59/weights4156566839" type="Const" version="opset1">
			<data element_type="f32" shape="1" offset="81024" size="4"/>
			<output>
				<port id="0" precision="FP32">
					<dim>1</dim>
				</port>
			</output>
		</layer>
		<layer id="126" name="LeakyRelu_59" type="PReLU" version="opset1">
			<input>
				<port id="0" precision="FP32">
					<dim>1</dim>
					<dim>32</dim>
					<dim>160</dim>
					<dim>160</dim>
				</port>
				<port id="1" precision="FP32">
					<dim>1</dim>
				</port>
			</input>
			<output>
				<port id="2" precision="FP32" names="760">
					<dim>1</dim>
					<dim>32</dim>
					<dim>160</dim>
					<dim>160</dim>
				</port>
			</output>
		</layer>
		<layer id="127" name="Concat_60" type="Concat" version="opset1">
			<data axis="1"/>
			<input>
				<port id="0" precision="FP32">
					<dim>1</dim>
					<dim>64</dim>
					<dim>160</dim>
					<dim>160</dim>
				</port>
				<port id="1" precision="FP32">
					<dim>1</dim>
					<dim>32</dim>
					<dim>160</dim>
					<dim>160</dim>
				</port>
				<port id="2" precision="FP32">
					<dim>1</dim>
					<dim>32</dim>
					<dim>160</dim>
					<dim>160</dim>
				</port>
				<port id="3" precision="FP32">
					<dim>1</dim>
					<dim>32</dim>
					<dim>160</dim>
					<dim>160</dim>
				</port>
			</input>
			<output>
				<port id="4" precision="FP32" names="761">
					<dim>1</dim>
					<dim>160</dim>
					<dim>160</dim>
					<dim>160</dim>
				</port>
			</output>
		</layer>
		<layer id="128" name="RRDB_trunk.1.RDB1.conv4.weight" type="Const" version="opset1">
			<data element_type="f32" shape="32, 160, 3, 3" offset="3217028" size="184320"/>
			<output>
				<port id="0" precision="FP32" names="RRDB_trunk.1.RDB1.conv4.weight">
					<dim>32</dim>
					<dim>160</dim>
					<dim>3</dim>
					<dim>3</dim>
				</port>
			</output>
		</layer>
		<layer id="129" name="Conv_61/WithoutBiases" type="Convolution" version="opset1">
			<data strides="1, 1" dilations="1, 1" pads_begin="1, 1" pads_end="1, 1" auto_pad="explicit"/>
			<input>
				<port id="0" precision="FP32">
					<dim>1</dim>
					<dim>160</dim>
					<dim>160</dim>
					<dim>160</dim>
				</port>
				<port id="1" precision="FP32">
					<dim>32</dim>
					<dim>160</dim>
					<dim>3</dim>
					<dim>3</dim>
				</port>
			</input>
			<output>
				<port id="2" precision="FP32">
					<dim>1</dim>
					<dim>32</dim>
					<dim>160</dim>
					<dim>160</dim>
				</port>
			</output>
		</layer>
		<layer id="130" name="Conv_61/Dims15008" type="Const" version="opset1">
			<data element_type="f32" shape="1, 32, 1, 1" offset="3401348" size="128"/>
			<output>
				<port id="0" precision="FP32">
					<dim>1</dim>
					<dim>32</dim>
					<dim>1</dim>
					<dim>1</dim>
				</port>
			</output>
		</layer>
		<layer id="131" name="Conv_61" type="Add" version="opset1">
			<data auto_broadcast="numpy"/>
			<input>
				<port id="0" precision="FP32">
					<dim>1</dim>
					<dim>32</dim>
					<dim>160</dim>
					<dim>160</dim>
				</port>
				<port id="1" precision="FP32">
					<dim>1</dim>
					<dim>32</dim>
					<dim>1</dim>
					<dim>1</dim>
				</port>
			</input>
			<output>
				<port id="2" precision="FP32" names="762">
					<dim>1</dim>
					<dim>32</dim>
					<dim>160</dim>
					<dim>160</dim>
				</port>
			</output>
		</layer>
		<layer id="132" name="LeakyRelu_62/weights4215368657" type="Const" version="opset1">
			<data element_type="f32" shape="1" offset="81024" size="4"/>
			<output>
				<port id="0" precision="FP32">
					<dim>1</dim>
				</port>
			</output>
		</layer>
		<layer id="133" name="LeakyRelu_62" type="PReLU" version="opset1">
			<input>
				<port id="0" precision="FP32">
					<dim>1</dim>
					<dim>32</dim>
					<dim>160</dim>
					<dim>160</dim>
				</port>
				<port id="1" precision="FP32">
					<dim>1</dim>
				</port>
			</input>
			<output>
				<port id="2" precision="FP32" names="763">
					<dim>1</dim>
					<dim>32</dim>
					<dim>160</dim>
					<dim>160</dim>
				</port>
			</output>
		</layer>
		<layer id="134" name="Concat_63" type="Concat" version="opset1">
			<data axis="1"/>
			<input>
				<port id="0" precision="FP32">
					<dim>1</dim>
					<dim>64</dim>
					<dim>160</dim>
					<dim>160</dim>
				</port>
				<port id="1" precision="FP32">
					<dim>1</dim>
					<dim>32</dim>
					<dim>160</dim>
					<dim>160</dim>
				</port>
				<port id="2" precision="FP32">
					<dim>1</dim>
					<dim>32</dim>
					<dim>160</dim>
					<dim>160</dim>
				</port>
				<port id="3" precision="FP32">
					<dim>1</dim>
					<dim>32</dim>
					<dim>160</dim>
					<dim>160</dim>
				</port>
				<port id="4" precision="FP32">
					<dim>1</dim>
					<dim>32</dim>
					<dim>160</dim>
					<dim>160</dim>
				</port>
			</input>
			<output>
				<port id="5" precision="FP32" names="764">
					<dim>1</dim>
					<dim>192</dim>
					<dim>160</dim>
					<dim>160</dim>
				</port>
			</output>
		</layer>
		<layer id="135" name="Mul_66/Fused_Mul__copy" type="Const" version="opset1">
			<data element_type="f32" shape="64, 192, 3, 3" offset="3401476" size="442368"/>
			<output>
				<port id="0" precision="FP32" names="RRDB_trunk.1.RDB1.conv5.weight">
					<dim>64</dim>
					<dim>192</dim>
					<dim>3</dim>
					<dim>3</dim>
				</port>
			</output>
		</layer>
		<layer id="136" name="Conv_64/WithoutBiases" type="Convolution" version="opset1">
			<data strides="1, 1" dilations="1, 1" pads_begin="1, 1" pads_end="1, 1" auto_pad="explicit"/>
			<input>
				<port id="0" precision="FP32">
					<dim>1</dim>
					<dim>192</dim>
					<dim>160</dim>
					<dim>160</dim>
				</port>
				<port id="1" precision="FP32">
					<dim>64</dim>
					<dim>192</dim>
					<dim>3</dim>
					<dim>3</dim>
				</port>
			</input>
			<output>
				<port id="2" precision="FP32">
					<dim>1</dim>
					<dim>64</dim>
					<dim>160</dim>
					<dim>160</dim>
				</port>
			</output>
		</layer>
		<layer id="137" name="data_add_2558125586" type="Const" version="opset1">
			<data element_type="f32" shape="1, 64, 1, 1" offset="3843844" size="256"/>
			<output>
				<port id="0" precision="FP32">
					<dim>1</dim>
					<dim>64</dim>
					<dim>1</dim>
					<dim>1</dim>
				</port>
			</output>
		</layer>
		<layer id="138" name="Conv_64/Fused_Add_" type="Add" version="opset1">
			<data auto_broadcast="numpy"/>
			<input>
				<port id="0" precision="FP32">
					<dim>1</dim>
					<dim>64</dim>
					<dim>160</dim>
					<dim>160</dim>
				</port>
				<port id="1" precision="FP32">
					<dim>1</dim>
					<dim>64</dim>
					<dim>1</dim>
					<dim>1</dim>
				</port>
			</input>
			<output>
				<port id="2" precision="FP32" names="767">
					<dim>1</dim>
					<dim>64</dim>
					<dim>160</dim>
					<dim>160</dim>
				</port>
			</output>
		</layer>
		<layer id="139" name="Add_67" type="Add" version="opset1">
			<data auto_broadcast="numpy"/>
			<input>
				<port id="0" precision="FP32">
					<dim>1</dim>
					<dim>64</dim>
					<dim>160</dim>
					<dim>160</dim>
				</port>
				<port id="1" precision="FP32">
					<dim>1</dim>
					<dim>64</dim>
					<dim>160</dim>
					<dim>160</dim>
				</port>
			</input>
			<output>
				<port id="2" precision="FP32" names="768">
					<dim>1</dim>
					<dim>64</dim>
					<dim>160</dim>
					<dim>160</dim>
				</port>
			</output>
		</layer>
		<layer id="140" name="RRDB_trunk.1.RDB2.conv1.weight" type="Const" version="opset1">
			<data element_type="f32" shape="32, 64, 3, 3" offset="3844100" size="73728"/>
			<output>
				<port id="0" precision="FP32" names="RRDB_trunk.1.RDB2.conv1.weight">
					<dim>32</dim>
					<dim>64</dim>
					<dim>3</dim>
					<dim>3</dim>
				</port>
			</output>
		</layer>
		<layer id="141" name="Conv_68/WithoutBiases" type="Convolution" version="opset1">
			<data strides="1, 1" dilations="1, 1" pads_begin="1, 1" pads_end="1, 1" auto_pad="explicit"/>
			<input>
				<port id="0" precision="FP32">
					<dim>1</dim>
					<dim>64</dim>
					<dim>160</dim>
					<dim>160</dim>
				</port>
				<port id="1" precision="FP32">
					<dim>32</dim>
					<dim>64</dim>
					<dim>3</dim>
					<dim>3</dim>
				</port>
			</input>
			<output>
				<port id="2" precision="FP32">
					<dim>1</dim>
					<dim>32</dim>
					<dim>160</dim>
					<dim>160</dim>
				</port>
			</output>
		</layer>
		<layer id="142" name="Conv_68/Dims16400" type="Const" version="opset1">
			<data element_type="f32" shape="1, 32, 1, 1" offset="3917828" size="128"/>
			<output>
				<port id="0" precision="FP32">
					<dim>1</dim>
					<dim>32</dim>
					<dim>1</dim>
					<dim>1</dim>
				</port>
			</output>
		</layer>
		<layer id="143" name="Conv_68" type="Add" version="opset1">
			<data auto_broadcast="numpy"/>
			<input>
				<port id="0" precision="FP32">
					<dim>1</dim>
					<dim>32</dim>
					<dim>160</dim>
					<dim>160</dim>
				</port>
				<port id="1" precision="FP32">
					<dim>1</dim>
					<dim>32</dim>
					<dim>1</dim>
					<dim>1</dim>
				</port>
			</input>
			<output>
				<port id="2" precision="FP32" names="769">
					<dim>1</dim>
					<dim>32</dim>
					<dim>160</dim>
					<dim>160</dim>
				</port>
			</output>
		</layer>
		<layer id="144" name="LeakyRelu_69/weights4180567649" type="Const" version="opset1">
			<data element_type="f32" shape="1" offset="81024" size="4"/>
			<output>
				<port id="0" precision="FP32">
					<dim>1</dim>
				</port>
			</output>
		</layer>
		<layer id="145" name="LeakyRelu_69" type="PReLU" version="opset1">
			<input>
				<port id="0" precision="FP32">
					<dim>1</dim>
					<dim>32</dim>
					<dim>160</dim>
					<dim>160</dim>
				</port>
				<port id="1" precision="FP32">
					<dim>1</dim>
				</port>
			</input>
			<output>
				<port id="2" precision="FP32" names="770">
					<dim>1</dim>
					<dim>32</dim>
					<dim>160</dim>
					<dim>160</dim>
				</port>
			</output>
		</layer>
		<layer id="146" name="Concat_70" type="Concat" version="opset1">
			<data axis="1"/>
			<input>
				<port id="0" precision="FP32">
					<dim>1</dim>
					<dim>64</dim>
					<dim>160</dim>
					<dim>160</dim>
				</port>
				<port id="1" precision="FP32">
					<dim>1</dim>
					<dim>32</dim>
					<dim>160</dim>
					<dim>160</dim>
				</port>
			</input>
			<output>
				<port id="2" precision="FP32" names="771">
					<dim>1</dim>
					<dim>96</dim>
					<dim>160</dim>
					<dim>160</dim>
				</port>
			</output>
		</layer>
		<layer id="147" name="RRDB_trunk.1.RDB2.conv2.weight" type="Const" version="opset1">
			<data element_type="f32" shape="32, 96, 3, 3" offset="3917956" size="110592"/>
			<output>
				<port id="0" precision="FP32" names="RRDB_trunk.1.RDB2.conv2.weight">
					<dim>32</dim>
					<dim>96</dim>
					<dim>3</dim>
					<dim>3</dim>
				</port>
			</output>
		</layer>
		<layer id="148" name="Conv_71/WithoutBiases" type="Convolution" version="opset1">
			<data strides="1, 1" dilations="1, 1" pads_begin="1, 1" pads_end="1, 1" auto_pad="explicit"/>
			<input>
				<port id="0" precision="FP32">
					<dim>1</dim>
					<dim>96</dim>
					<dim>160</dim>
					<dim>160</dim>
				</port>
				<port id="1" precision="FP32">
					<dim>32</dim>
					<dim>96</dim>
					<dim>3</dim>
					<dim>3</dim>
				</port>
			</input>
			<output>
				<port id="2" precision="FP32">
					<dim>1</dim>
					<dim>32</dim>
					<dim>160</dim>
					<dim>160</dim>
				</port>
			</output>
		</layer>
		<layer id="149" name="Conv_71/Dims15194" type="Const" version="opset1">
			<data element_type="f32" shape="1, 32, 1, 1" offset="4028548" size="128"/>
			<output>
				<port id="0" precision="FP32">
					<dim>1</dim>
					<dim>32</dim>
					<dim>1</dim>
					<dim>1</dim>
				</port>
			</output>
		</layer>
		<layer id="150" name="Conv_71" type="Add" version="opset1">
			<data auto_broadcast="numpy"/>
			<input>
				<port id="0" precision="FP32">
					<dim>1</dim>
					<dim>32</dim>
					<dim>160</dim>
					<dim>160</dim>
				</port>
				<port id="1" precision="FP32">
					<dim>1</dim>
					<dim>32</dim>
					<dim>1</dim>
					<dim>1</dim>
				</port>
			</input>
			<output>
				<port id="2" precision="FP32" names="772">
					<dim>1</dim>
					<dim>32</dim>
					<dim>160</dim>
					<dim>160</dim>
				</port>
			</output>
		</layer>
		<layer id="151" name="LeakyRelu_72/weights4202966539" type="Const" version="opset1">
			<data element_type="f32" shape="1" offset="81024" size="4"/>
			<output>
				<port id="0" precision="FP32">
					<dim>1</dim>
				</port>
			</output>
		</layer>
		<layer id="152" name="LeakyRelu_72" type="PReLU" version="opset1">
			<input>
				<port id="0" precision="FP32">
					<dim>1</dim>
					<dim>32</dim>
					<dim>160</dim>
					<dim>160</dim>
				</port>
				<port id="1" precision="FP32">
					<dim>1</dim>
				</port>
			</input>
			<output>
				<port id="2" precision="FP32" names="773">
					<dim>1</dim>
					<dim>32</dim>
					<dim>160</dim>
					<dim>160</dim>
				</port>
			</output>
		</layer>
		<layer id="153" name="Concat_73" type="Concat" version="opset1">
			<data axis="1"/>
			<input>
				<port id="0" precision="FP32">
					<dim>1</dim>
					<dim>64</dim>
					<dim>160</dim>
					<dim>160</dim>
				</port>
				<port id="1" precision="FP32">
					<dim>1</dim>
					<dim>32</dim>
					<dim>160</dim>
					<dim>160</dim>
				</port>
				<port id="2" precision="FP32">
					<dim>1</dim>
					<dim>32</dim>
					<dim>160</dim>
					<dim>160</dim>
				</port>
			</input>
			<output>
				<port id="3" precision="FP32" names="774">
					<dim>1</dim>
					<dim>128</dim>
					<dim>160</dim>
					<dim>160</dim>
				</port>
			</output>
		</layer>
		<layer id="154" name="RRDB_trunk.1.RDB2.conv3.weight" type="Const" version="opset1">
			<data element_type="f32" shape="32, 128, 3, 3" offset="4028676" size="147456"/>
			<output>
				<port id="0" precision="FP32" names="RRDB_trunk.1.RDB2.conv3.weight">
					<dim>32</dim>
					<dim>128</dim>
					<dim>3</dim>
					<dim>3</dim>
				</port>
			</output>
		</layer>
		<layer id="155" name="Conv_74/WithoutBiases" type="Convolution" version="opset1">
			<data strides="1, 1" dilations="1, 1" pads_begin="1, 1" pads_end="1, 1" auto_pad="explicit"/>
			<input>
				<port id="0" precision="FP32">
					<dim>1</dim>
					<dim>128</dim>
					<dim>160</dim>
					<dim>160</dim>
				</port>
				<port id="1" precision="FP32">
					<dim>32</dim>
					<dim>128</dim>
					<dim>3</dim>
					<dim>3</dim>
				</port>
			</input>
			<output>
				<port id="2" precision="FP32">
					<dim>1</dim>
					<dim>32</dim>
					<dim>160</dim>
					<dim>160</dim>
				</port>
			</output>
		</layer>
		<layer id="156" name="Conv_74/Dims15044" type="Const" version="opset1">
			<data element_type="f32" shape="1, 32, 1, 1" offset="4176132" size="128"/>
			<output>
				<port id="0" precision="FP32">
					<dim>1</dim>
					<dim>32</dim>
					<dim>1</dim>
					<dim>1</dim>
				</port>
			</output>
		</layer>
		<layer id="157" name="Conv_74" type="Add" version="opset1">
			<data auto_broadcast="numpy"/>
			<input>
				<port id="0" precision="FP32">
					<dim>1</dim>
					<dim>32</dim>
					<dim>160</dim>
					<dim>160</dim>
				</port>
				<port id="1" precision="FP32">
					<dim>1</dim>
					<dim>32</dim>
					<dim>1</dim>
					<dim>1</dim>
				</port>
			</input>
			<output>
				<port id="2" precision="FP32" names="775">
					<dim>1</dim>
					<dim>32</dim>
					<dim>160</dim>
					<dim>160</dim>
				</port>
			</output>
		</layer>
		<layer id="158" name="LeakyRelu_75/weights4174567178" type="Const" version="opset1">
			<data element_type="f32" shape="1" offset="81024" size="4"/>
			<output>
				<port id="0" precision="FP32">
					<dim>1</dim>
				</port>
			</output>
		</layer>
		<layer id="159" name="LeakyRelu_75" type="PReLU" version="opset1">
			<input>
				<port id="0" precision="FP32">
					<dim>1</dim>
					<dim>32</dim>
					<dim>160</dim>
					<dim>160</dim>
				</port>
				<port id="1" precision="FP32">
					<dim>1</dim>
				</port>
			</input>
			<output>
				<port id="2" precision="FP32" names="776">
					<dim>1</dim>
					<dim>32</dim>
					<dim>160</dim>
					<dim>160</dim>
				</port>
			</output>
		</layer>
		<layer id="160" name="Concat_76" type="Concat" version="opset1">
			<data axis="1"/>
			<input>
				<port id="0" precision="FP32">
					<dim>1</dim>
					<dim>64</dim>
					<dim>160</dim>
					<dim>160</dim>
				</port>
				<port id="1" precision="FP32">
					<dim>1</dim>
					<dim>32</dim>
					<dim>160</dim>
					<dim>160</dim>
				</port>
				<port id="2" precision="FP32">
					<dim>1</dim>
					<dim>32</dim>
					<dim>160</dim>
					<dim>160</dim>
				</port>
				<port id="3" precision="FP32">
					<dim>1</dim>
					<dim>32</dim>
					<dim>160</dim>
					<dim>160</dim>
				</port>
			</input>
			<output>
				<port id="4" precision="FP32" names="777">
					<dim>1</dim>
					<dim>160</dim>
					<dim>160</dim>
					<dim>160</dim>
				</port>
			</output>
		</layer>
		<layer id="161" name="RRDB_trunk.1.RDB2.conv4.weight" type="Const" version="opset1">
			<data element_type="f32" shape="32, 160, 3, 3" offset="4176260" size="184320"/>
			<output>
				<port id="0" precision="FP32" names="RRDB_trunk.1.RDB2.conv4.weight">
					<dim>32</dim>
					<dim>160</dim>
					<dim>3</dim>
					<dim>3</dim>
				</port>
			</output>
		</layer>
		<layer id="162" name="Conv_77/WithoutBiases" type="Convolution" version="opset1">
			<data strides="1, 1" dilations="1, 1" pads_begin="1, 1" pads_end="1, 1" auto_pad="explicit"/>
			<input>
				<port id="0" precision="FP32">
					<dim>1</dim>
					<dim>160</dim>
					<dim>160</dim>
					<dim>160</dim>
				</port>
				<port id="1" precision="FP32">
					<dim>32</dim>
					<dim>160</dim>
					<dim>3</dim>
					<dim>3</dim>
				</port>
			</input>
			<output>
				<port id="2" precision="FP32">
					<dim>1</dim>
					<dim>32</dim>
					<dim>160</dim>
					<dim>160</dim>
				</port>
			</output>
		</layer>
		<layer id="163" name="Conv_77/Dims14834" type="Const" version="opset1">
			<data element_type="f32" shape="1, 32, 1, 1" offset="4360580" size="128"/>
			<output>
				<port id="0" precision="FP32">
					<dim>1</dim>
					<dim>32</dim>
					<dim>1</dim>
					<dim>1</dim>
				</port>
			</output>
		</layer>
		<layer id="164" name="Conv_77" type="Add" version="opset1">
			<data auto_broadcast="numpy"/>
			<input>
				<port id="0" precision="FP32">
					<dim>1</dim>
					<dim>32</dim>
					<dim>160</dim>
					<dim>160</dim>
				</port>
				<port id="1" precision="FP32">
					<dim>1</dim>
					<dim>32</dim>
					<dim>1</dim>
					<dim>1</dim>
				</port>
			</input>
			<output>
				<port id="2" precision="FP32" names="778">
					<dim>1</dim>
					<dim>32</dim>
					<dim>160</dim>
					<dim>160</dim>
				</port>
			</output>
		</layer>
		<layer id="165" name="LeakyRelu_78/weights4168166587" type="Const" version="opset1">
			<data element_type="f32" shape="1" offset="81024" size="4"/>
			<output>
				<port id="0" precision="FP32">
					<dim>1</dim>
				</port>
			</output>
		</layer>
		<layer id="166" name="LeakyRelu_78" type="PReLU" version="opset1">
			<input>
				<port id="0" precision="FP32">
					<dim>1</dim>
					<dim>32</dim>
					<dim>160</dim>
					<dim>160</dim>
				</port>
				<port id="1" precision="FP32">
					<dim>1</dim>
				</port>
			</input>
			<output>
				<port id="2" precision="FP32" names="779">
					<dim>1</dim>
					<dim>32</dim>
					<dim>160</dim>
					<dim>160</dim>
				</port>
			</output>
		</layer>
		<layer id="167" name="Concat_79" type="Concat" version="opset1">
			<data axis="1"/>
			<input>
				<port id="0" precision="FP32">
					<dim>1</dim>
					<dim>64</dim>
					<dim>160</dim>
					<dim>160</dim>
				</port>
				<port id="1" precision="FP32">
					<dim>1</dim>
					<dim>32</dim>
					<dim>160</dim>
					<dim>160</dim>
				</port>
				<port id="2" precision="FP32">
					<dim>1</dim>
					<dim>32</dim>
					<dim>160</dim>
					<dim>160</dim>
				</port>
				<port id="3" precision="FP32">
					<dim>1</dim>
					<dim>32</dim>
					<dim>160</dim>
					<dim>160</dim>
				</port>
				<port id="4" precision="FP32">
					<dim>1</dim>
					<dim>32</dim>
					<dim>160</dim>
					<dim>160</dim>
				</port>
			</input>
			<output>
				<port id="5" precision="FP32" names="780">
					<dim>1</dim>
					<dim>192</dim>
					<dim>160</dim>
					<dim>160</dim>
				</port>
			</output>
		</layer>
		<layer id="168" name="Mul_82/Fused_Mul__copy" type="Const" version="opset1">
			<data element_type="f32" shape="64, 192, 3, 3" offset="4360708" size="442368"/>
			<output>
				<port id="0" precision="FP32" names="RRDB_trunk.1.RDB2.conv5.weight">
					<dim>64</dim>
					<dim>192</dim>
					<dim>3</dim>
					<dim>3</dim>
				</port>
			</output>
		</layer>
		<layer id="169" name="Conv_80/WithoutBiases" type="Convolution" version="opset1">
			<data strides="1, 1" dilations="1, 1" pads_begin="1, 1" pads_end="1, 1" auto_pad="explicit"/>
			<input>
				<port id="0" precision="FP32">
					<dim>1</dim>
					<dim>192</dim>
					<dim>160</dim>
					<dim>160</dim>
				</port>
				<port id="1" precision="FP32">
					<dim>64</dim>
					<dim>192</dim>
					<dim>3</dim>
					<dim>3</dim>
				</port>
			</input>
			<output>
				<port id="2" precision="FP32">
					<dim>1</dim>
					<dim>64</dim>
					<dim>160</dim>
					<dim>160</dim>
				</port>
			</output>
		</layer>
		<layer id="170" name="data_add_2558925594" type="Const" version="opset1">
			<data element_type="f32" shape="1, 64, 1, 1" offset="4803076" size="256"/>
			<output>
				<port id="0" precision="FP32">
					<dim>1</dim>
					<dim>64</dim>
					<dim>1</dim>
					<dim>1</dim>
				</port>
			</output>
		</layer>
		<layer id="171" name="Conv_80/Fused_Add_" type="Add" version="opset1">
			<data auto_broadcast="numpy"/>
			<input>
				<port id="0" precision="FP32">
					<dim>1</dim>
					<dim>64</dim>
					<dim>160</dim>
					<dim>160</dim>
				</port>
				<port id="1" precision="FP32">
					<dim>1</dim>
					<dim>64</dim>
					<dim>1</dim>
					<dim>1</dim>
				</port>
			</input>
			<output>
				<port id="2" precision="FP32" names="783">
					<dim>1</dim>
					<dim>64</dim>
					<dim>160</dim>
					<dim>160</dim>
				</port>
			</output>
		</layer>
		<layer id="172" name="Add_83" type="Add" version="opset1">
			<data auto_broadcast="numpy"/>
			<input>
				<port id="0" precision="FP32">
					<dim>1</dim>
					<dim>64</dim>
					<dim>160</dim>
					<dim>160</dim>
				</port>
				<port id="1" precision="FP32">
					<dim>1</dim>
					<dim>64</dim>
					<dim>160</dim>
					<dim>160</dim>
				</port>
			</input>
			<output>
				<port id="2" precision="FP32" names="784">
					<dim>1</dim>
					<dim>64</dim>
					<dim>160</dim>
					<dim>160</dim>
				</port>
			</output>
		</layer>
		<layer id="173" name="RRDB_trunk.1.RDB3.conv1.weight" type="Const" version="opset1">
			<data element_type="f32" shape="32, 64, 3, 3" offset="4803332" size="73728"/>
			<output>
				<port id="0" precision="FP32" names="RRDB_trunk.1.RDB3.conv1.weight">
					<dim>32</dim>
					<dim>64</dim>
					<dim>3</dim>
					<dim>3</dim>
				</port>
			</output>
		</layer>
		<layer id="174" name="Conv_84/WithoutBiases" type="Convolution" version="opset1">
			<data strides="1, 1" dilations="1, 1" pads_begin="1, 1" pads_end="1, 1" auto_pad="explicit"/>
			<input>
				<port id="0" precision="FP32">
					<dim>1</dim>
					<dim>64</dim>
					<dim>160</dim>
					<dim>160</dim>
				</port>
				<port id="1" precision="FP32">
					<dim>32</dim>
					<dim>64</dim>
					<dim>3</dim>
					<dim>3</dim>
				</port>
			</input>
			<output>
				<port id="2" precision="FP32">
					<dim>1</dim>
					<dim>32</dim>
					<dim>160</dim>
					<dim>160</dim>
				</port>
			</output>
		</layer>
		<layer id="175" name="Conv_84/Dims16640" type="Const" version="opset1">
			<data element_type="f32" shape="1, 32, 1, 1" offset="4877060" size="128"/>
			<output>
				<port id="0" precision="FP32">
					<dim>1</dim>
					<dim>32</dim>
					<dim>1</dim>
					<dim>1</dim>
				</port>
			</output>
		</layer>
		<layer id="176" name="Conv_84" type="Add" version="opset1">
			<data auto_broadcast="numpy"/>
			<input>
				<port id="0" precision="FP32">
					<dim>1</dim>
					<dim>32</dim>
					<dim>160</dim>
					<dim>160</dim>
				</port>
				<port id="1" precision="FP32">
					<dim>1</dim>
					<dim>32</dim>
					<dim>1</dim>
					<dim>1</dim>
				</port>
			</input>
			<output>
				<port id="2" precision="FP32" names="785">
					<dim>1</dim>
					<dim>32</dim>
					<dim>160</dim>
					<dim>160</dim>
				</port>
			</output>
		</layer>
		<layer id="177" name="LeakyRelu_85/weights4218967682" type="Const" version="opset1">
			<data element_type="f32" shape="1" offset="81024" size="4"/>
			<output>
				<port id="0" precision="FP32">
					<dim>1</dim>
				</port>
			</output>
		</layer>
		<layer id="178" name="LeakyRelu_85" type="PReLU" version="opset1">
			<input>
				<port id="0" precision="FP32">
					<dim>1</dim>
					<dim>32</dim>
					<dim>160</dim>
					<dim>160</dim>
				</port>
				<port id="1" precision="FP32">
					<dim>1</dim>
				</port>
			</input>
			<output>
				<port id="2" precision="FP32" names="786">
					<dim>1</dim>
					<dim>32</dim>
					<dim>160</dim>
					<dim>160</dim>
				</port>
			</output>
		</layer>
		<layer id="179" name="Concat_86" type="Concat" version="opset1">
			<data axis="1"/>
			<input>
				<port id="0" precision="FP32">
					<dim>1</dim>
					<dim>64</dim>
					<dim>160</dim>
					<dim>160</dim>
				</port>
				<port id="1" precision="FP32">
					<dim>1</dim>
					<dim>32</dim>
					<dim>160</dim>
					<dim>160</dim>
				</port>
			</input>
			<output>
				<port id="2" precision="FP32" names="787">
					<dim>1</dim>
					<dim>96</dim>
					<dim>160</dim>
					<dim>160</dim>
				</port>
			</output>
		</layer>
		<layer id="180" name="RRDB_trunk.1.RDB3.conv2.weight" type="Const" version="opset1">
			<data element_type="f32" shape="32, 96, 3, 3" offset="4877188" size="110592"/>
			<output>
				<port id="0" precision="FP32" names="RRDB_trunk.1.RDB3.conv2.weight">
					<dim>32</dim>
					<dim>96</dim>
					<dim>3</dim>
					<dim>3</dim>
				</port>
			</output>
		</layer>
		<layer id="181" name="Conv_87/WithoutBiases" type="Convolution" version="opset1">
			<data strides="1, 1" dilations="1, 1" pads_begin="1, 1" pads_end="1, 1" auto_pad="explicit"/>
			<input>
				<port id="0" precision="FP32">
					<dim>1</dim>
					<dim>96</dim>
					<dim>160</dim>
					<dim>160</dim>
				</port>
				<port id="1" precision="FP32">
					<dim>32</dim>
					<dim>96</dim>
					<dim>3</dim>
					<dim>3</dim>
				</port>
			</input>
			<output>
				<port id="2" precision="FP32">
					<dim>1</dim>
					<dim>32</dim>
					<dim>160</dim>
					<dim>160</dim>
				</port>
			</output>
		</layer>
		<layer id="182" name="Conv_87/Dims15896" type="Const" version="opset1">
			<data element_type="f32" shape="1, 32, 1, 1" offset="4987780" size="128"/>
			<output>
				<port id="0" precision="FP32">
					<dim>1</dim>
					<dim>32</dim>
					<dim>1</dim>
					<dim>1</dim>
				</port>
			</output>
		</layer>
		<layer id="183" name="Conv_87" type="Add" version="opset1">
			<data auto_broadcast="numpy"/>
			<input>
				<port id="0" precision="FP32">
					<dim>1</dim>
					<dim>32</dim>
					<dim>160</dim>
					<dim>160</dim>
				</port>
				<port id="1" precision="FP32">
					<dim>1</dim>
					<dim>32</dim>
					<dim>1</dim>
					<dim>1</dim>
				</port>
			</input>
			<output>
				<port id="2" precision="FP32" names="788">
					<dim>1</dim>
					<dim>32</dim>
					<dim>160</dim>
					<dim>160</dim>
				</port>
			</output>
		</layer>
		<layer id="184" name="LeakyRelu_88/weights4172966602" type="Const" version="opset1">
			<data element_type="f32" shape="1" offset="81024" size="4"/>
			<output>
				<port id="0" precision="FP32">
					<dim>1</dim>
				</port>
			</output>
		</layer>
		<layer id="185" name="LeakyRelu_88" type="PReLU" version="opset1">
			<input>
				<port id="0" precision="FP32">
					<dim>1</dim>
					<dim>32</dim>
					<dim>160</dim>
					<dim>160</dim>
				</port>
				<port id="1" precision="FP32">
					<dim>1</dim>
				</port>
			</input>
			<output>
				<port id="2" precision="FP32" names="789">
					<dim>1</dim>
					<dim>32</dim>
					<dim>160</dim>
					<dim>160</dim>
				</port>
			</output>
		</layer>
		<layer id="186" name="Concat_89" type="Concat" version="opset1">
			<data axis="1"/>
			<input>
				<port id="0" precision="FP32">
					<dim>1</dim>
					<dim>64</dim>
					<dim>160</dim>
					<dim>160</dim>
				</port>
				<port id="1" precision="FP32">
					<dim>1</dim>
					<dim>32</dim>
					<dim>160</dim>
					<dim>160</dim>
				</port>
				<port id="2" precision="FP32">
					<dim>1</dim>
					<dim>32</dim>
					<dim>160</dim>
					<dim>160</dim>
				</port>
			</input>
			<output>
				<port id="3" precision="FP32" names="790">
					<dim>1</dim>
					<dim>128</dim>
					<dim>160</dim>
					<dim>160</dim>
				</port>
			</output>
		</layer>
		<layer id="187" name="RRDB_trunk.1.RDB3.conv3.weight" type="Const" version="opset1">
			<data element_type="f32" shape="32, 128, 3, 3" offset="4987908" size="147456"/>
			<output>
				<port id="0" precision="FP32" names="RRDB_trunk.1.RDB3.conv3.weight">
					<dim>32</dim>
					<dim>128</dim>
					<dim>3</dim>
					<dim>3</dim>
				</port>
			</output>
		</layer>
		<layer id="188" name="Conv_90/WithoutBiases" type="Convolution" version="opset1">
			<data strides="1, 1" dilations="1, 1" pads_begin="1, 1" pads_end="1, 1" auto_pad="explicit"/>
			<input>
				<port id="0" precision="FP32">
					<dim>1</dim>
					<dim>128</dim>
					<dim>160</dim>
					<dim>160</dim>
				</port>
				<port id="1" precision="FP32">
					<dim>32</dim>
					<dim>128</dim>
					<dim>3</dim>
					<dim>3</dim>
				</port>
			</input>
			<output>
				<port id="2" precision="FP32">
					<dim>1</dim>
					<dim>32</dim>
					<dim>160</dim>
					<dim>160</dim>
				</port>
			</output>
		</layer>
		<layer id="189" name="Conv_90/Dims14774" type="Const" version="opset1">
			<data element_type="f32" shape="1, 32, 1, 1" offset="5135364" size="128"/>
			<output>
				<port id="0" precision="FP32">
					<dim>1</dim>
					<dim>32</dim>
					<dim>1</dim>
					<dim>1</dim>
				</port>
			</output>
		</layer>
		<layer id="190" name="Conv_90" type="Add" version="opset1">
			<data auto_broadcast="numpy"/>
			<input>
				<port id="0" precision="FP32">
					<dim>1</dim>
					<dim>32</dim>
					<dim>160</dim>
					<dim>160</dim>
				</port>
				<port id="1" precision="FP32">
					<dim>1</dim>
					<dim>32</dim>
					<dim>1</dim>
					<dim>1</dim>
				</port>
			</input>
			<output>
				<port id="2" precision="FP32" names="791">
					<dim>1</dim>
					<dim>32</dim>
					<dim>160</dim>
					<dim>160</dim>
				</port>
			</output>
		</layer>
		<layer id="191" name="LeakyRelu_91/weights4221769056" type="Const" version="opset1">
			<data element_type="f32" shape="1" offset="81024" size="4"/>
			<output>
				<port id="0" precision="FP32">
					<dim>1</dim>
				</port>
			</output>
		</layer>
		<layer id="192" name="LeakyRelu_91" type="PReLU" version="opset1">
			<input>
				<port id="0" precision="FP32">
					<dim>1</dim>
					<dim>32</dim>
					<dim>160</dim>
					<dim>160</dim>
				</port>
				<port id="1" precision="FP32">
					<dim>1</dim>
				</port>
			</input>
			<output>
				<port id="2" precision="FP32" names="792">
					<dim>1</dim>
					<dim>32</dim>
					<dim>160</dim>
					<dim>160</dim>
				</port>
			</output>
		</layer>
		<layer id="193" name="Concat_92" type="Concat" version="opset1">
			<data axis="1"/>
			<input>
				<port id="0" precision="FP32">
					<dim>1</dim>
					<dim>64</dim>
					<dim>160</dim>
					<dim>160</dim>
				</port>
				<port id="1" precision="FP32">
					<dim>1</dim>
					<dim>32</dim>
					<dim>160</dim>
					<dim>160</dim>
				</port>
				<port id="2" precision="FP32">
					<dim>1</dim>
					<dim>32</dim>
					<dim>160</dim>
					<dim>160</dim>
				</port>
				<port id="3" precision="FP32">
					<dim>1</dim>
					<dim>32</dim>
					<dim>160</dim>
					<dim>160</dim>
				</port>
			</input>
			<output>
				<port id="4" precision="FP32" names="793">
					<dim>1</dim>
					<dim>160</dim>
					<dim>160</dim>
					<dim>160</dim>
				</port>
			</output>
		</layer>
		<layer id="194" name="RRDB_trunk.1.RDB3.conv4.weight" type="Const" version="opset1">
			<data element_type="f32" shape="32, 160, 3, 3" offset="5135492" size="184320"/>
			<output>
				<port id="0" precision="FP32" names="RRDB_trunk.1.RDB3.conv4.weight">
					<dim>32</dim>
					<dim>160</dim>
					<dim>3</dim>
					<dim>3</dim>
				</port>
			</output>
		</layer>
		<layer id="195" name="Conv_93/WithoutBiases" type="Convolution" version="opset1">
			<data strides="1, 1" dilations="1, 1" pads_begin="1, 1" pads_end="1, 1" auto_pad="explicit"/>
			<input>
				<port id="0" precision="FP32">
					<dim>1</dim>
					<dim>160</dim>
					<dim>160</dim>
					<dim>160</dim>
				</port>
				<port id="1" precision="FP32">
					<dim>32</dim>
					<dim>160</dim>
					<dim>3</dim>
					<dim>3</dim>
				</port>
			</input>
			<output>
				<port id="2" precision="FP32">
					<dim>1</dim>
					<dim>32</dim>
					<dim>160</dim>
					<dim>160</dim>
				</port>
			</output>
		</layer>
		<layer id="196" name="Conv_93/Dims15056" type="Const" version="opset1">
			<data element_type="f32" shape="1, 32, 1, 1" offset="5319812" size="128"/>
			<output>
				<port id="0" precision="FP32">
					<dim>1</dim>
					<dim>32</dim>
					<dim>1</dim>
					<dim>1</dim>
				</port>
			</output>
		</layer>
		<layer id="197" name="Conv_93" type="Add" version="opset1">
			<data auto_broadcast="numpy"/>
			<input>
				<port id="0" precision="FP32">
					<dim>1</dim>
					<dim>32</dim>
					<dim>160</dim>
					<dim>160</dim>
				</port>
				<port id="1" precision="FP32">
					<dim>1</dim>
					<dim>32</dim>
					<dim>1</dim>
					<dim>1</dim>
				</port>
			</input>
			<output>
				<port id="2" precision="FP32" names="794">
					<dim>1</dim>
					<dim>32</dim>
					<dim>160</dim>
					<dim>160</dim>
				</port>
			</output>
		</layer>
		<layer id="198" name="LeakyRelu_94/weights4233767730" type="Const" version="opset1">
			<data element_type="f32" shape="1" offset="81024" size="4"/>
			<output>
				<port id="0" precision="FP32">
					<dim>1</dim>
				</port>
			</output>
		</layer>
		<layer id="199" name="LeakyRelu_94" type="PReLU" version="opset1">
			<input>
				<port id="0" precision="FP32">
					<dim>1</dim>
					<dim>32</dim>
					<dim>160</dim>
					<dim>160</dim>
				</port>
				<port id="1" precision="FP32">
					<dim>1</dim>
				</port>
			</input>
			<output>
				<port id="2" precision="FP32" names="795">
					<dim>1</dim>
					<dim>32</dim>
					<dim>160</dim>
					<dim>160</dim>
				</port>
			</output>
		</layer>
		<layer id="200" name="Concat_95" type="Concat" version="opset1">
			<data axis="1"/>
			<input>
				<port id="0" precision="FP32">
					<dim>1</dim>
					<dim>64</dim>
					<dim>160</dim>
					<dim>160</dim>
				</port>
				<port id="1" precision="FP32">
					<dim>1</dim>
					<dim>32</dim>
					<dim>160</dim>
					<dim>160</dim>
				</port>
				<port id="2" precision="FP32">
					<dim>1</dim>
					<dim>32</dim>
					<dim>160</dim>
					<dim>160</dim>
				</port>
				<port id="3" precision="FP32">
					<dim>1</dim>
					<dim>32</dim>
					<dim>160</dim>
					<dim>160</dim>
				</port>
				<port id="4" precision="FP32">
					<dim>1</dim>
					<dim>32</dim>
					<dim>160</dim>
					<dim>160</dim>
				</port>
			</input>
			<output>
				<port id="5" precision="FP32" names="796">
					<dim>1</dim>
					<dim>192</dim>
					<dim>160</dim>
					<dim>160</dim>
				</port>
			</output>
		</layer>
		<layer id="201" name="Mul_98/Fused_Mul__copy" type="Const" version="opset1">
			<data element_type="f32" shape="64, 192, 3, 3" offset="5319940" size="442368"/>
			<output>
				<port id="0" precision="FP32" names="RRDB_trunk.1.RDB3.conv5.weight">
					<dim>64</dim>
					<dim>192</dim>
					<dim>3</dim>
					<dim>3</dim>
				</port>
			</output>
		</layer>
		<layer id="202" name="Conv_96/WithoutBiases" type="Convolution" version="opset1">
			<data strides="1, 1" dilations="1, 1" pads_begin="1, 1" pads_end="1, 1" auto_pad="explicit"/>
			<input>
				<port id="0" precision="FP32">
					<dim>1</dim>
					<dim>192</dim>
					<dim>160</dim>
					<dim>160</dim>
				</port>
				<port id="1" precision="FP32">
					<dim>64</dim>
					<dim>192</dim>
					<dim>3</dim>
					<dim>3</dim>
				</port>
			</input>
			<output>
				<port id="2" precision="FP32">
					<dim>1</dim>
					<dim>64</dim>
					<dim>160</dim>
					<dim>160</dim>
				</port>
			</output>
		</layer>
		<layer id="203" name="data_add_2559725602" type="Const" version="opset1">
			<data element_type="f32" shape="1, 64, 1, 1" offset="5762308" size="256"/>
			<output>
				<port id="0" precision="FP32">
					<dim>1</dim>
					<dim>64</dim>
					<dim>1</dim>
					<dim>1</dim>
				</port>
			</output>
		</layer>
		<layer id="204" name="Conv_96/Fused_Add_" type="Add" version="opset1">
			<data auto_broadcast="numpy"/>
			<input>
				<port id="0" precision="FP32">
					<dim>1</dim>
					<dim>64</dim>
					<dim>160</dim>
					<dim>160</dim>
				</port>
				<port id="1" precision="FP32">
					<dim>1</dim>
					<dim>64</dim>
					<dim>1</dim>
					<dim>1</dim>
				</port>
			</input>
			<output>
				<port id="2" precision="FP32" names="799">
					<dim>1</dim>
					<dim>64</dim>
					<dim>160</dim>
					<dim>160</dim>
				</port>
			</output>
		</layer>
		<layer id="205" name="Add_99" type="Add" version="opset1">
			<data auto_broadcast="numpy"/>
			<input>
				<port id="0" precision="FP32">
					<dim>1</dim>
					<dim>64</dim>
					<dim>160</dim>
					<dim>160</dim>
				</port>
				<port id="1" precision="FP32">
					<dim>1</dim>
					<dim>64</dim>
					<dim>160</dim>
					<dim>160</dim>
				</port>
			</input>
			<output>
				<port id="2" precision="FP32" names="800">
					<dim>1</dim>
					<dim>64</dim>
					<dim>160</dim>
					<dim>160</dim>
				</port>
			</output>
		</layer>
		<layer id="206" name="71568213" type="Const" version="opset1">
			<data element_type="f32" shape="1, 1, 1, 1" offset="81024" size="4"/>
			<output>
				<port id="0" precision="FP32" names="715">
					<dim>1</dim>
					<dim>1</dim>
					<dim>1</dim>
					<dim>1</dim>
				</port>
			</output>
		</layer>
		<layer id="207" name="Mul_101" type="Multiply" version="opset1">
			<data auto_broadcast="numpy"/>
			<input>
				<port id="0" precision="FP32">
					<dim>1</dim>
					<dim>64</dim>
					<dim>160</dim>
					<dim>160</dim>
				</port>
				<port id="1" precision="FP32">
					<dim>1</dim>
					<dim>1</dim>
					<dim>1</dim>
					<dim>1</dim>
				</port>
			</input>
			<output>
				<port id="2" precision="FP32" names="802">
					<dim>1</dim>
					<dim>64</dim>
					<dim>160</dim>
					<dim>160</dim>
				</port>
			</output>
		</layer>
		<layer id="208" name="Add_102" type="Add" version="opset1">
			<data auto_broadcast="numpy"/>
			<input>
				<port id="0" precision="FP32">
					<dim>1</dim>
					<dim>64</dim>
					<dim>160</dim>
					<dim>160</dim>
				</port>
				<port id="1" precision="FP32">
					<dim>1</dim>
					<dim>64</dim>
					<dim>160</dim>
					<dim>160</dim>
				</port>
			</input>
			<output>
				<port id="2" precision="FP32" names="803">
					<dim>1</dim>
					<dim>64</dim>
					<dim>160</dim>
					<dim>160</dim>
				</port>
			</output>
		</layer>
		<layer id="209" name="RRDB_trunk.2.RDB1.conv1.weight" type="Const" version="opset1">
			<data element_type="f32" shape="32, 64, 3, 3" offset="5762564" size="73728"/>
			<output>
				<port id="0" precision="FP32" names="RRDB_trunk.2.RDB1.conv1.weight">
					<dim>32</dim>
					<dim>64</dim>
					<dim>3</dim>
					<dim>3</dim>
				</port>
			</output>
		</layer>
		<layer id="210" name="Conv_103/WithoutBiases" type="Convolution" version="opset1">
			<data strides="1, 1" dilations="1, 1" pads_begin="1, 1" pads_end="1, 1" auto_pad="explicit"/>
			<input>
				<port id="0" precision="FP32">
					<dim>1</dim>
					<dim>64</dim>
					<dim>160</dim>
					<dim>160</dim>
				</port>
				<port id="1" precision="FP32">
					<dim>32</dim>
					<dim>64</dim>
					<dim>3</dim>
					<dim>3</dim>
				</port>
			</input>
			<output>
				<port id="2" precision="FP32">
					<dim>1</dim>
					<dim>32</dim>
					<dim>160</dim>
					<dim>160</dim>
				</port>
			</output>
		</layer>
		<layer id="211" name="Conv_103/Dims15218" type="Const" version="opset1">
			<data element_type="f32" shape="1, 32, 1, 1" offset="5836292" size="128"/>
			<output>
				<port id="0" precision="FP32">
					<dim>1</dim>
					<dim>32</dim>
					<dim>1</dim>
					<dim>1</dim>
				</port>
			</output>
		</layer>
		<layer id="212" name="Conv_103" type="Add" version="opset1">
			<data auto_broadcast="numpy"/>
			<input>
				<port id="0" precision="FP32">
					<dim>1</dim>
					<dim>32</dim>
					<dim>160</dim>
					<dim>160</dim>
				</port>
				<port id="1" precision="FP32">
					<dim>1</dim>
					<dim>32</dim>
					<dim>1</dim>
					<dim>1</dim>
				</port>
			</input>
			<output>
				<port id="2" precision="FP32" names="804">
					<dim>1</dim>
					<dim>32</dim>
					<dim>160</dim>
					<dim>160</dim>
				</port>
			</output>
		</layer>
		<layer id="213" name="LeakyRelu_104/weights4223366824" type="Const" version="opset1">
			<data element_type="f32" shape="1" offset="81024" size="4"/>
			<output>
				<port id="0" precision="FP32">
					<dim>1</dim>
				</port>
			</output>
		</layer>
		<layer id="214" name="LeakyRelu_104" type="PReLU" version="opset1">
			<input>
				<port id="0" precision="FP32">
					<dim>1</dim>
					<dim>32</dim>
					<dim>160</dim>
					<dim>160</dim>
				</port>
				<port id="1" precision="FP32">
					<dim>1</dim>
				</port>
			</input>
			<output>
				<port id="2" precision="FP32" names="805">
					<dim>1</dim>
					<dim>32</dim>
					<dim>160</dim>
					<dim>160</dim>
				</port>
			</output>
		</layer>
		<layer id="215" name="Concat_105" type="Concat" version="opset1">
			<data axis="1"/>
			<input>
				<port id="0" precision="FP32">
					<dim>1</dim>
					<dim>64</dim>
					<dim>160</dim>
					<dim>160</dim>
				</port>
				<port id="1" precision="FP32">
					<dim>1</dim>
					<dim>32</dim>
					<dim>160</dim>
					<dim>160</dim>
				</port>
			</input>
			<output>
				<port id="2" precision="FP32" names="806">
					<dim>1</dim>
					<dim>96</dim>
					<dim>160</dim>
					<dim>160</dim>
				</port>
			</output>
		</layer>
		<layer id="216" name="RRDB_trunk.2.RDB1.conv2.weight" type="Const" version="opset1">
			<data element_type="f32" shape="32, 96, 3, 3" offset="5836420" size="110592"/>
			<output>
				<port id="0" precision="FP32" names="RRDB_trunk.2.RDB1.conv2.weight">
					<dim>32</dim>
					<dim>96</dim>
					<dim>3</dim>
					<dim>3</dim>
				</port>
			</output>
		</layer>
		<layer id="217" name="Conv_106/WithoutBiases" type="Convolution" version="opset1">
			<data strides="1, 1" dilations="1, 1" pads_begin="1, 1" pads_end="1, 1" auto_pad="explicit"/>
			<input>
				<port id="0" precision="FP32">
					<dim>1</dim>
					<dim>96</dim>
					<dim>160</dim>
					<dim>160</dim>
				</port>
				<port id="1" precision="FP32">
					<dim>32</dim>
					<dim>96</dim>
					<dim>3</dim>
					<dim>3</dim>
				</port>
			</input>
			<output>
				<port id="2" precision="FP32">
					<dim>1</dim>
					<dim>32</dim>
					<dim>160</dim>
					<dim>160</dim>
				</port>
			</output>
		</layer>
		<layer id="218" name="Conv_106/Dims16538" type="Const" version="opset1">
			<data element_type="f32" shape="1, 32, 1, 1" offset="5947012" size="128"/>
			<output>
				<port id="0" precision="FP32">
					<dim>1</dim>
					<dim>32</dim>
					<dim>1</dim>
					<dim>1</dim>
				</port>
			</output>
		</layer>
		<layer id="219" name="Conv_106" type="Add" version="opset1">
			<data auto_broadcast="numpy"/>
			<input>
				<port id="0" precision="FP32">
					<dim>1</dim>
					<dim>32</dim>
					<dim>160</dim>
					<dim>160</dim>
				</port>
				<port id="1" precision="FP32">
					<dim>1</dim>
					<dim>32</dim>
					<dim>1</dim>
					<dim>1</dim>
				</port>
			</input>
			<output>
				<port id="2" precision="FP32" names="807">
					<dim>1</dim>
					<dim>32</dim>
					<dim>160</dim>
					<dim>160</dim>
				</port>
			</output>
		</layer>
		<layer id="220" name="LeakyRelu_107/weights4178568348" type="Const" version="opset1">
			<data element_type="f32" shape="1" offset="81024" size="4"/>
			<output>
				<port id="0" precision="FP32">
					<dim>1</dim>
				</port>
			</output>
		</layer>
		<layer id="221" name="LeakyRelu_107" type="PReLU" version="opset1">
			<input>
				<port id="0" precision="FP32">
					<dim>1</dim>
					<dim>32</dim>
					<dim>160</dim>
					<dim>160</dim>
				</port>
				<port id="1" precision="FP32">
					<dim>1</dim>
				</port>
			</input>
			<output>
				<port id="2" precision="FP32" names="808">
					<dim>1</dim>
					<dim>32</dim>
					<dim>160</dim>
					<dim>160</dim>
				</port>
			</output>
		</layer>
		<layer id="222" name="Concat_108" type="Concat" version="opset1">
			<data axis="1"/>
			<input>
				<port id="0" precision="FP32">
					<dim>1</dim>
					<dim>64</dim>
					<dim>160</dim>
					<dim>160</dim>
				</port>
				<port id="1" precision="FP32">
					<dim>1</dim>
					<dim>32</dim>
					<dim>160</dim>
					<dim>160</dim>
				</port>
				<port id="2" precision="FP32">
					<dim>1</dim>
					<dim>32</dim>
					<dim>160</dim>
					<dim>160</dim>
				</port>
			</input>
			<output>
				<port id="3" precision="FP32" names="809">
					<dim>1</dim>
					<dim>128</dim>
					<dim>160</dim>
					<dim>160</dim>
				</port>
			</output>
		</layer>
		<layer id="223" name="RRDB_trunk.2.RDB1.conv3.weight" type="Const" version="opset1">
			<data element_type="f32" shape="32, 128, 3, 3" offset="5947140" size="147456"/>
			<output>
				<port id="0" precision="FP32" names="RRDB_trunk.2.RDB1.conv3.weight">
					<dim>32</dim>
					<dim>128</dim>
					<dim>3</dim>
					<dim>3</dim>
				</port>
			</output>
		</layer>
		<layer id="224" name="Conv_109/WithoutBiases" type="Convolution" version="opset1">
			<data strides="1, 1" dilations="1, 1" pads_begin="1, 1" pads_end="1, 1" auto_pad="explicit"/>
			<input>
				<port id="0" precision="FP32">
					<dim>1</dim>
					<dim>128</dim>
					<dim>160</dim>
					<dim>160</dim>
				</port>
				<port id="1" precision="FP32">
					<dim>32</dim>
					<dim>128</dim>
					<dim>3</dim>
					<dim>3</dim>
				</port>
			</input>
			<output>
				<port id="2" precision="FP32">
					<dim>1</dim>
					<dim>32</dim>
					<dim>160</dim>
					<dim>160</dim>
				</port>
			</output>
		</layer>
		<layer id="225" name="Conv_109/Dims15146" type="Const" version="opset1">
			<data element_type="f32" shape="1, 32, 1, 1" offset="6094596" size="128"/>
			<output>
				<port id="0" precision="FP32">
					<dim>1</dim>
					<dim>32</dim>
					<dim>1</dim>
					<dim>1</dim>
				</port>
			</output>
		</layer>
		<layer id="226" name="Conv_109" type="Add" version="opset1">
			<data auto_broadcast="numpy"/>
			<input>
				<port id="0" precision="FP32">
					<dim>1</dim>
					<dim>32</dim>
					<dim>160</dim>
					<dim>160</dim>
				</port>
				<port id="1" precision="FP32">
					<dim>1</dim>
					<dim>32</dim>
					<dim>1</dim>
					<dim>1</dim>
				</port>
			</input>
			<output>
				<port id="2" precision="FP32" names="810">
					<dim>1</dim>
					<dim>32</dim>
					<dim>160</dim>
					<dim>160</dim>
				</port>
			</output>
		</layer>
		<layer id="227" name="LeakyRelu_110/weights4179369221" type="Const" version="opset1">
			<data element_type="f32" shape="1" offset="81024" size="4"/>
			<output>
				<port id="0" precision="FP32">
					<dim>1</dim>
				</port>
			</output>
		</layer>
		<layer id="228" name="LeakyRelu_110" type="PReLU" version="opset1">
			<input>
				<port id="0" precision="FP32">
					<dim>1</dim>
					<dim>32</dim>
					<dim>160</dim>
					<dim>160</dim>
				</port>
				<port id="1" precision="FP32">
					<dim>1</dim>
				</port>
			</input>
			<output>
				<port id="2" precision="FP32" names="811">
					<dim>1</dim>
					<dim>32</dim>
					<dim>160</dim>
					<dim>160</dim>
				</port>
			</output>
		</layer>
		<layer id="229" name="Concat_111" type="Concat" version="opset1">
			<data axis="1"/>
			<input>
				<port id="0" precision="FP32">
					<dim>1</dim>
					<dim>64</dim>
					<dim>160</dim>
					<dim>160</dim>
				</port>
				<port id="1" precision="FP32">
					<dim>1</dim>
					<dim>32</dim>
					<dim>160</dim>
					<dim>160</dim>
				</port>
				<port id="2" precision="FP32">
					<dim>1</dim>
					<dim>32</dim>
					<dim>160</dim>
					<dim>160</dim>
				</port>
				<port id="3" precision="FP32">
					<dim>1</dim>
					<dim>32</dim>
					<dim>160</dim>
					<dim>160</dim>
				</port>
			</input>
			<output>
				<port id="4" precision="FP32" names="812">
					<dim>1</dim>
					<dim>160</dim>
					<dim>160</dim>
					<dim>160</dim>
				</port>
			</output>
		</layer>
		<layer id="230" name="RRDB_trunk.2.RDB1.conv4.weight" type="Const" version="opset1">
			<data element_type="f32" shape="32, 160, 3, 3" offset="6094724" size="184320"/>
			<output>
				<port id="0" precision="FP32" names="RRDB_trunk.2.RDB1.conv4.weight">
					<dim>32</dim>
					<dim>160</dim>
					<dim>3</dim>
					<dim>3</dim>
				</port>
			</output>
		</layer>
		<layer id="231" name="Conv_112/WithoutBiases" type="Convolution" version="opset1">
			<data strides="1, 1" dilations="1, 1" pads_begin="1, 1" pads_end="1, 1" auto_pad="explicit"/>
			<input>
				<port id="0" precision="FP32">
					<dim>1</dim>
					<dim>160</dim>
					<dim>160</dim>
					<dim>160</dim>
				</port>
				<port id="1" precision="FP32">
					<dim>32</dim>
					<dim>160</dim>
					<dim>3</dim>
					<dim>3</dim>
				</port>
			</input>
			<output>
				<port id="2" precision="FP32">
					<dim>1</dim>
					<dim>32</dim>
					<dim>160</dim>
					<dim>160</dim>
				</port>
			</output>
		</layer>
		<layer id="232" name="Conv_112/Dims15500" type="Const" version="opset1">
			<data element_type="f32" shape="1, 32, 1, 1" offset="6279044" size="128"/>
			<output>
				<port id="0" precision="FP32">
					<dim>1</dim>
					<dim>32</dim>
					<dim>1</dim>
					<dim>1</dim>
				</port>
			</output>
		</layer>
		<layer id="233" name="Conv_112" type="Add" version="opset1">
			<data auto_broadcast="numpy"/>
			<input>
				<port id="0" precision="FP32">
					<dim>1</dim>
					<dim>32</dim>
					<dim>160</dim>
					<dim>160</dim>
				</port>
				<port id="1" precision="FP32">
					<dim>1</dim>
					<dim>32</dim>
					<dim>1</dim>
					<dim>1</dim>
				</port>
			</input>
			<output>
				<port id="2" precision="FP32" names="813">
					<dim>1</dim>
					<dim>32</dim>
					<dim>160</dim>
					<dim>160</dim>
				</port>
			</output>
		</layer>
		<layer id="234" name="LeakyRelu_113/weights4176168459" type="Const" version="opset1">
			<data element_type="f32" shape="1" offset="81024" size="4"/>
			<output>
				<port id="0" precision="FP32">
					<dim>1</dim>
				</port>
			</output>
		</layer>
		<layer id="235" name="LeakyRelu_113" type="PReLU" version="opset1">
			<input>
				<port id="0" precision="FP32">
					<dim>1</dim>
					<dim>32</dim>
					<dim>160</dim>
					<dim>160</dim>
				</port>
				<port id="1" precision="FP32">
					<dim>1</dim>
				</port>
			</input>
			<output>
				<port id="2" precision="FP32" names="814">
					<dim>1</dim>
					<dim>32</dim>
					<dim>160</dim>
					<dim>160</dim>
				</port>
			</output>
		</layer>
		<layer id="236" name="Concat_114" type="Concat" version="opset1">
			<data axis="1"/>
			<input>
				<port id="0" precision="FP32">
					<dim>1</dim>
					<dim>64</dim>
					<dim>160</dim>
					<dim>160</dim>
				</port>
				<port id="1" precision="FP32">
					<dim>1</dim>
					<dim>32</dim>
					<dim>160</dim>
					<dim>160</dim>
				</port>
				<port id="2" precision="FP32">
					<dim>1</dim>
					<dim>32</dim>
					<dim>160</dim>
					<dim>160</dim>
				</port>
				<port id="3" precision="FP32">
					<dim>1</dim>
					<dim>32</dim>
					<dim>160</dim>
					<dim>160</dim>
				</port>
				<port id="4" precision="FP32">
					<dim>1</dim>
					<dim>32</dim>
					<dim>160</dim>
					<dim>160</dim>
				</port>
			</input>
			<output>
				<port id="5" precision="FP32" names="815">
					<dim>1</dim>
					<dim>192</dim>
					<dim>160</dim>
					<dim>160</dim>
				</port>
			</output>
		</layer>
		<layer id="237" name="Mul_117/Fused_Mul__copy" type="Const" version="opset1">
			<data element_type="f32" shape="64, 192, 3, 3" offset="6279172" size="442368"/>
			<output>
				<port id="0" precision="FP32" names="RRDB_trunk.2.RDB1.conv5.weight">
					<dim>64</dim>
					<dim>192</dim>
					<dim>3</dim>
					<dim>3</dim>
				</port>
			</output>
		</layer>
		<layer id="238" name="Conv_115/WithoutBiases" type="Convolution" version="opset1">
			<data strides="1, 1" dilations="1, 1" pads_begin="1, 1" pads_end="1, 1" auto_pad="explicit"/>
			<input>
				<port id="0" precision="FP32">
					<dim>1</dim>
					<dim>192</dim>
					<dim>160</dim>
					<dim>160</dim>
				</port>
				<port id="1" precision="FP32">
					<dim>64</dim>
					<dim>192</dim>
					<dim>3</dim>
					<dim>3</dim>
				</port>
			</input>
			<output>
				<port id="2" precision="FP32">
					<dim>1</dim>
					<dim>64</dim>
					<dim>160</dim>
					<dim>160</dim>
				</port>
			</output>
		</layer>
		<layer id="239" name="data_add_2560525610" type="Const" version="opset1">
			<data element_type="f32" shape="1, 64, 1, 1" offset="6721540" size="256"/>
			<output>
				<port id="0" precision="FP32">
					<dim>1</dim>
					<dim>64</dim>
					<dim>1</dim>
					<dim>1</dim>
				</port>
			</output>
		</layer>
		<layer id="240" name="Conv_115/Fused_Add_" type="Add" version="opset1">
			<data auto_broadcast="numpy"/>
			<input>
				<port id="0" precision="FP32">
					<dim>1</dim>
					<dim>64</dim>
					<dim>160</dim>
					<dim>160</dim>
				</port>
				<port id="1" precision="FP32">
					<dim>1</dim>
					<dim>64</dim>
					<dim>1</dim>
					<dim>1</dim>
				</port>
			</input>
			<output>
				<port id="2" precision="FP32" names="818">
					<dim>1</dim>
					<dim>64</dim>
					<dim>160</dim>
					<dim>160</dim>
				</port>
			</output>
		</layer>
		<layer id="241" name="Add_118" type="Add" version="opset1">
			<data auto_broadcast="numpy"/>
			<input>
				<port id="0" precision="FP32">
					<dim>1</dim>
					<dim>64</dim>
					<dim>160</dim>
					<dim>160</dim>
				</port>
				<port id="1" precision="FP32">
					<dim>1</dim>
					<dim>64</dim>
					<dim>160</dim>
					<dim>160</dim>
				</port>
			</input>
			<output>
				<port id="2" precision="FP32" names="819">
					<dim>1</dim>
					<dim>64</dim>
					<dim>160</dim>
					<dim>160</dim>
				</port>
			</output>
		</layer>
		<layer id="242" name="RRDB_trunk.2.RDB2.conv1.weight" type="Const" version="opset1">
			<data element_type="f32" shape="32, 64, 3, 3" offset="6721796" size="73728"/>
			<output>
				<port id="0" precision="FP32" names="RRDB_trunk.2.RDB2.conv1.weight">
					<dim>32</dim>
					<dim>64</dim>
					<dim>3</dim>
					<dim>3</dim>
				</port>
			</output>
		</layer>
		<layer id="243" name="Conv_119/WithoutBiases" type="Convolution" version="opset1">
			<data strides="1, 1" dilations="1, 1" pads_begin="1, 1" pads_end="1, 1" auto_pad="explicit"/>
			<input>
				<port id="0" precision="FP32">
					<dim>1</dim>
					<dim>64</dim>
					<dim>160</dim>
					<dim>160</dim>
				</port>
				<port id="1" precision="FP32">
					<dim>32</dim>
					<dim>64</dim>
					<dim>3</dim>
					<dim>3</dim>
				</port>
			</input>
			<output>
				<port id="2" precision="FP32">
					<dim>1</dim>
					<dim>32</dim>
					<dim>160</dim>
					<dim>160</dim>
				</port>
			</output>
		</layer>
		<layer id="244" name="Conv_119/Dims16424" type="Const" version="opset1">
			<data element_type="f32" shape="1, 32, 1, 1" offset="6795524" size="128"/>
			<output>
				<port id="0" precision="FP32">
					<dim>1</dim>
					<dim>32</dim>
					<dim>1</dim>
					<dim>1</dim>
				</port>
			</output>
		</layer>
		<layer id="245" name="Conv_119" type="Add" version="opset1">
			<data auto_broadcast="numpy"/>
			<input>
				<port id="0" precision="FP32">
					<dim>1</dim>
					<dim>32</dim>
					<dim>160</dim>
					<dim>160</dim>
				</port>
				<port id="1" precision="FP32">
					<dim>1</dim>
					<dim>32</dim>
					<dim>1</dim>
					<dim>1</dim>
				</port>
			</input>
			<output>
				<port id="2" precision="FP32" names="820">
					<dim>1</dim>
					<dim>32</dim>
					<dim>160</dim>
					<dim>160</dim>
				</port>
			</output>
		</layer>
		<layer id="246" name="LeakyRelu_120/weights4171767559" type="Const" version="opset1">
			<data element_type="f32" shape="1" offset="81024" size="4"/>
			<output>
				<port id="0" precision="FP32">
					<dim>1</dim>
				</port>
			</output>
		</layer>
		<layer id="247" name="LeakyRelu_120" type="PReLU" version="opset1">
			<input>
				<port id="0" precision="FP32">
					<dim>1</dim>
					<dim>32</dim>
					<dim>160</dim>
					<dim>160</dim>
				</port>
				<port id="1" precision="FP32">
					<dim>1</dim>
				</port>
			</input>
			<output>
				<port id="2" precision="FP32" names="821">
					<dim>1</dim>
					<dim>32</dim>
					<dim>160</dim>
					<dim>160</dim>
				</port>
			</output>
		</layer>
		<layer id="248" name="Concat_121" type="Concat" version="opset1">
			<data axis="1"/>
			<input>
				<port id="0" precision="FP32">
					<dim>1</dim>
					<dim>64</dim>
					<dim>160</dim>
					<dim>160</dim>
				</port>
				<port id="1" precision="FP32">
					<dim>1</dim>
					<dim>32</dim>
					<dim>160</dim>
					<dim>160</dim>
				</port>
			</input>
			<output>
				<port id="2" precision="FP32" names="822">
					<dim>1</dim>
					<dim>96</dim>
					<dim>160</dim>
					<dim>160</dim>
				</port>
			</output>
		</layer>
		<layer id="249" name="RRDB_trunk.2.RDB2.conv2.weight" type="Const" version="opset1">
			<data element_type="f32" shape="32, 96, 3, 3" offset="6795652" size="110592"/>
			<output>
				<port id="0" precision="FP32" names="RRDB_trunk.2.RDB2.conv2.weight">
					<dim>32</dim>
					<dim>96</dim>
					<dim>3</dim>
					<dim>3</dim>
				</port>
			</output>
		</layer>
		<layer id="250" name="Conv_122/WithoutBiases" type="Convolution" version="opset1">
			<data strides="1, 1" dilations="1, 1" pads_begin="1, 1" pads_end="1, 1" auto_pad="explicit"/>
			<input>
				<port id="0" precision="FP32">
					<dim>1</dim>
					<dim>96</dim>
					<dim>160</dim>
					<dim>160</dim>
				</port>
				<port id="1" precision="FP32">
					<dim>32</dim>
					<dim>96</dim>
					<dim>3</dim>
					<dim>3</dim>
				</port>
			</input>
			<output>
				<port id="2" precision="FP32">
					<dim>1</dim>
					<dim>32</dim>
					<dim>160</dim>
					<dim>160</dim>
				</port>
			</output>
		</layer>
		<layer id="251" name="Conv_122/Dims15110" type="Const" version="opset1">
			<data element_type="f32" shape="1, 32, 1, 1" offset="6906244" size="128"/>
			<output>
				<port id="0" precision="FP32">
					<dim>1</dim>
					<dim>32</dim>
					<dim>1</dim>
					<dim>1</dim>
				</port>
			</output>
		</layer>
		<layer id="252" name="Conv_122" type="Add" version="opset1">
			<data auto_broadcast="numpy"/>
			<input>
				<port id="0" precision="FP32">
					<dim>1</dim>
					<dim>32</dim>
					<dim>160</dim>
					<dim>160</dim>
				</port>
				<port id="1" precision="FP32">
					<dim>1</dim>
					<dim>32</dim>
					<dim>1</dim>
					<dim>1</dim>
				</port>
			</input>
			<output>
				<port id="2" precision="FP32" names="823">
					<dim>1</dim>
					<dim>32</dim>
					<dim>160</dim>
					<dim>160</dim>
				</port>
			</output>
		</layer>
		<layer id="253" name="LeakyRelu_123/weights4199369344" type="Const" version="opset1">
			<data element_type="f32" shape="1" offset="81024" size="4"/>
			<output>
				<port id="0" precision="FP32">
					<dim>1</dim>
				</port>
			</output>
		</layer>
		<layer id="254" name="LeakyRelu_123" type="PReLU" version="opset1">
			<input>
				<port id="0" precision="FP32">
					<dim>1</dim>
					<dim>32</dim>
					<dim>160</dim>
					<dim>160</dim>
				</port>
				<port id="1" precision="FP32">
					<dim>1</dim>
				</port>
			</input>
			<output>
				<port id="2" precision="FP32" names="824">
					<dim>1</dim>
					<dim>32</dim>
					<dim>160</dim>
					<dim>160</dim>
				</port>
			</output>
		</layer>
		<layer id="255" name="Concat_124" type="Concat" version="opset1">
			<data axis="1"/>
			<input>
				<port id="0" precision="FP32">
					<dim>1</dim>
					<dim>64</dim>
					<dim>160</dim>
					<dim>160</dim>
				</port>
				<port id="1" precision="FP32">
					<dim>1</dim>
					<dim>32</dim>
					<dim>160</dim>
					<dim>160</dim>
				</port>
				<port id="2" precision="FP32">
					<dim>1</dim>
					<dim>32</dim>
					<dim>160</dim>
					<dim>160</dim>
				</port>
			</input>
			<output>
				<port id="3" precision="FP32" names="825">
					<dim>1</dim>
					<dim>128</dim>
					<dim>160</dim>
					<dim>160</dim>
				</port>
			</output>
		</layer>
		<layer id="256" name="RRDB_trunk.2.RDB2.conv3.weight" type="Const" version="opset1">
			<data element_type="f32" shape="32, 128, 3, 3" offset="6906372" size="147456"/>
			<output>
				<port id="0" precision="FP32" names="RRDB_trunk.2.RDB2.conv3.weight">
					<dim>32</dim>
					<dim>128</dim>
					<dim>3</dim>
					<dim>3</dim>
				</port>
			</output>
		</layer>
		<layer id="257" name="Conv_125/WithoutBiases" type="Convolution" version="opset1">
			<data strides="1, 1" dilations="1, 1" pads_begin="1, 1" pads_end="1, 1" auto_pad="explicit"/>
			<input>
				<port id="0" precision="FP32">
					<dim>1</dim>
					<dim>128</dim>
					<dim>160</dim>
					<dim>160</dim>
				</port>
				<port id="1" precision="FP32">
					<dim>32</dim>
					<dim>128</dim>
					<dim>3</dim>
					<dim>3</dim>
				</port>
			</input>
			<output>
				<port id="2" precision="FP32">
					<dim>1</dim>
					<dim>32</dim>
					<dim>160</dim>
					<dim>160</dim>
				</port>
			</output>
		</layer>
		<layer id="258" name="Conv_125/Dims16766" type="Const" version="opset1">
			<data element_type="f32" shape="1, 32, 1, 1" offset="7053828" size="128"/>
			<output>
				<port id="0" precision="FP32">
					<dim>1</dim>
					<dim>32</dim>
					<dim>1</dim>
					<dim>1</dim>
				</port>
			</output>
		</layer>
		<layer id="259" name="Conv_125" type="Add" version="opset1">
			<data auto_broadcast="numpy"/>
			<input>
				<port id="0" precision="FP32">
					<dim>1</dim>
					<dim>32</dim>
					<dim>160</dim>
					<dim>160</dim>
				</port>
				<port id="1" precision="FP32">
					<dim>1</dim>
					<dim>32</dim>
					<dim>1</dim>
					<dim>1</dim>
				</port>
			</input>
			<output>
				<port id="2" precision="FP32" names="826">
					<dim>1</dim>
					<dim>32</dim>
					<dim>160</dim>
					<dim>160</dim>
				</port>
			</output>
		</layer>
		<layer id="260" name="LeakyRelu_126/weights4183766470" type="Const" version="opset1">
			<data element_type="f32" shape="1" offset="81024" size="4"/>
			<output>
				<port id="0" precision="FP32">
					<dim>1</dim>
				</port>
			</output>
		</layer>
		<layer id="261" name="LeakyRelu_126" type="PReLU" version="opset1">
			<input>
				<port id="0" precision="FP32">
					<dim>1</dim>
					<dim>32</dim>
					<dim>160</dim>
					<dim>160</dim>
				</port>
				<port id="1" precision="FP32">
					<dim>1</dim>
				</port>
			</input>
			<output>
				<port id="2" precision="FP32" names="827">
					<dim>1</dim>
					<dim>32</dim>
					<dim>160</dim>
					<dim>160</dim>
				</port>
			</output>
		</layer>
		<layer id="262" name="Concat_127" type="Concat" version="opset1">
			<data axis="1"/>
			<input>
				<port id="0" precision="FP32">
					<dim>1</dim>
					<dim>64</dim>
					<dim>160</dim>
					<dim>160</dim>
				</port>
				<port id="1" precision="FP32">
					<dim>1</dim>
					<dim>32</dim>
					<dim>160</dim>
					<dim>160</dim>
				</port>
				<port id="2" precision="FP32">
					<dim>1</dim>
					<dim>32</dim>
					<dim>160</dim>
					<dim>160</dim>
				</port>
				<port id="3" precision="FP32">
					<dim>1</dim>
					<dim>32</dim>
					<dim>160</dim>
					<dim>160</dim>
				</port>
			</input>
			<output>
				<port id="4" precision="FP32" names="828">
					<dim>1</dim>
					<dim>160</dim>
					<dim>160</dim>
					<dim>160</dim>
				</port>
			</output>
		</layer>
		<layer id="263" name="RRDB_trunk.2.RDB2.conv4.weight" type="Const" version="opset1">
			<data element_type="f32" shape="32, 160, 3, 3" offset="7053956" size="184320"/>
			<output>
				<port id="0" precision="FP32" names="RRDB_trunk.2.RDB2.conv4.weight">
					<dim>32</dim>
					<dim>160</dim>
					<dim>3</dim>
					<dim>3</dim>
				</port>
			</output>
		</layer>
		<layer id="264" name="Conv_128/WithoutBiases" type="Convolution" version="opset1">
			<data strides="1, 1" dilations="1, 1" pads_begin="1, 1" pads_end="1, 1" auto_pad="explicit"/>
			<input>
				<port id="0" precision="FP32">
					<dim>1</dim>
					<dim>160</dim>
					<dim>160</dim>
					<dim>160</dim>
				</port>
				<port id="1" precision="FP32">
					<dim>32</dim>
					<dim>160</dim>
					<dim>3</dim>
					<dim>3</dim>
				</port>
			</input>
			<output>
				<port id="2" precision="FP32">
					<dim>1</dim>
					<dim>32</dim>
					<dim>160</dim>
					<dim>160</dim>
				</port>
			</output>
		</layer>
		<layer id="265" name="Conv_128/Dims16592" type="Const" version="opset1">
			<data element_type="f32" shape="1, 32, 1, 1" offset="7238276" size="128"/>
			<output>
				<port id="0" precision="FP32">
					<dim>1</dim>
					<dim>32</dim>
					<dim>1</dim>
					<dim>1</dim>
				</port>
			</output>
		</layer>
		<layer id="266" name="Conv_128" type="Add" version="opset1">
			<data auto_broadcast="numpy"/>
			<input>
				<port id="0" precision="FP32">
					<dim>1</dim>
					<dim>32</dim>
					<dim>160</dim>
					<dim>160</dim>
				</port>
				<port id="1" precision="FP32">
					<dim>1</dim>
					<dim>32</dim>
					<dim>1</dim>
					<dim>1</dim>
				</port>
			</input>
			<output>
				<port id="2" precision="FP32" names="829">
					<dim>1</dim>
					<dim>32</dim>
					<dim>160</dim>
					<dim>160</dim>
				</port>
			</output>
		</layer>
		<layer id="267" name="LeakyRelu_129/weights4235369305" type="Const" version="opset1">
			<data element_type="f32" shape="1" offset="81024" size="4"/>
			<output>
				<port id="0" precision="FP32">
					<dim>1</dim>
				</port>
			</output>
		</layer>
		<layer id="268" name="LeakyRelu_129" type="PReLU" version="opset1">
			<input>
				<port id="0" precision="FP32">
					<dim>1</dim>
					<dim>32</dim>
					<dim>160</dim>
					<dim>160</dim>
				</port>
				<port id="1" precision="FP32">
					<dim>1</dim>
				</port>
			</input>
			<output>
				<port id="2" precision="FP32" names="830">
					<dim>1</dim>
					<dim>32</dim>
					<dim>160</dim>
					<dim>160</dim>
				</port>
			</output>
		</layer>
		<layer id="269" name="Concat_130" type="Concat" version="opset1">
			<data axis="1"/>
			<input>
				<port id="0" precision="FP32">
					<dim>1</dim>
					<dim>64</dim>
					<dim>160</dim>
					<dim>160</dim>
				</port>
				<port id="1" precision="FP32">
					<dim>1</dim>
					<dim>32</dim>
					<dim>160</dim>
					<dim>160</dim>
				</port>
				<port id="2" precision="FP32">
					<dim>1</dim>
					<dim>32</dim>
					<dim>160</dim>
					<dim>160</dim>
				</port>
				<port id="3" precision="FP32">
					<dim>1</dim>
					<dim>32</dim>
					<dim>160</dim>
					<dim>160</dim>
				</port>
				<port id="4" precision="FP32">
					<dim>1</dim>
					<dim>32</dim>
					<dim>160</dim>
					<dim>160</dim>
				</port>
			</input>
			<output>
				<port id="5" precision="FP32" names="831">
					<dim>1</dim>
					<dim>192</dim>
					<dim>160</dim>
					<dim>160</dim>
				</port>
			</output>
		</layer>
		<layer id="270" name="Mul_133/Fused_Mul__copy" type="Const" version="opset1">
			<data element_type="f32" shape="64, 192, 3, 3" offset="7238404" size="442368"/>
			<output>
				<port id="0" precision="FP32" names="RRDB_trunk.2.RDB2.conv5.weight">
					<dim>64</dim>
					<dim>192</dim>
					<dim>3</dim>
					<dim>3</dim>
				</port>
			</output>
		</layer>
		<layer id="271" name="Conv_131/WithoutBiases" type="Convolution" version="opset1">
			<data strides="1, 1" dilations="1, 1" pads_begin="1, 1" pads_end="1, 1" auto_pad="explicit"/>
			<input>
				<port id="0" precision="FP32">
					<dim>1</dim>
					<dim>192</dim>
					<dim>160</dim>
					<dim>160</dim>
				</port>
				<port id="1" precision="FP32">
					<dim>64</dim>
					<dim>192</dim>
					<dim>3</dim>
					<dim>3</dim>
				</port>
			</input>
			<output>
				<port id="2" precision="FP32">
					<dim>1</dim>
					<dim>64</dim>
					<dim>160</dim>
					<dim>160</dim>
				</port>
			</output>
		</layer>
		<layer id="272" name="data_add_2561325618" type="Const" version="opset1">
			<data element_type="f32" shape="1, 64, 1, 1" offset="7680772" size="256"/>
			<output>
				<port id="0" precision="FP32">
					<dim>1</dim>
					<dim>64</dim>
					<dim>1</dim>
					<dim>1</dim>
				</port>
			</output>
		</layer>
		<layer id="273" name="Conv_131/Fused_Add_" type="Add" version="opset1">
			<data auto_broadcast="numpy"/>
			<input>
				<port id="0" precision="FP32">
					<dim>1</dim>
					<dim>64</dim>
					<dim>160</dim>
					<dim>160</dim>
				</port>
				<port id="1" precision="FP32">
					<dim>1</dim>
					<dim>64</dim>
					<dim>1</dim>
					<dim>1</dim>
				</port>
			</input>
			<output>
				<port id="2" precision="FP32" names="834">
					<dim>1</dim>
					<dim>64</dim>
					<dim>160</dim>
					<dim>160</dim>
				</port>
			</output>
		</layer>
		<layer id="274" name="Add_134" type="Add" version="opset1">
			<data auto_broadcast="numpy"/>
			<input>
				<port id="0" precision="FP32">
					<dim>1</dim>
					<dim>64</dim>
					<dim>160</dim>
					<dim>160</dim>
				</port>
				<port id="1" precision="FP32">
					<dim>1</dim>
					<dim>64</dim>
					<dim>160</dim>
					<dim>160</dim>
				</port>
			</input>
			<output>
				<port id="2" precision="FP32" names="835">
					<dim>1</dim>
					<dim>64</dim>
					<dim>160</dim>
					<dim>160</dim>
				</port>
			</output>
		</layer>
		<layer id="275" name="RRDB_trunk.2.RDB3.conv1.weight" type="Const" version="opset1">
			<data element_type="f32" shape="32, 64, 3, 3" offset="7681028" size="73728"/>
			<output>
				<port id="0" precision="FP32" names="RRDB_trunk.2.RDB3.conv1.weight">
					<dim>32</dim>
					<dim>64</dim>
					<dim>3</dim>
					<dim>3</dim>
				</port>
			</output>
		</layer>
		<layer id="276" name="Conv_135/WithoutBiases" type="Convolution" version="opset1">
			<data strides="1, 1" dilations="1, 1" pads_begin="1, 1" pads_end="1, 1" auto_pad="explicit"/>
			<input>
				<port id="0" precision="FP32">
					<dim>1</dim>
					<dim>64</dim>
					<dim>160</dim>
					<dim>160</dim>
				</port>
				<port id="1" precision="FP32">
					<dim>32</dim>
					<dim>64</dim>
					<dim>3</dim>
					<dim>3</dim>
				</port>
			</input>
			<output>
				<port id="2" precision="FP32">
					<dim>1</dim>
					<dim>32</dim>
					<dim>160</dim>
					<dim>160</dim>
				</port>
			</output>
		</layer>
		<layer id="277" name="Conv_135/Dims15806" type="Const" version="opset1">
			<data element_type="f32" shape="1, 32, 1, 1" offset="7754756" size="128"/>
			<output>
				<port id="0" precision="FP32">
					<dim>1</dim>
					<dim>32</dim>
					<dim>1</dim>
					<dim>1</dim>
				</port>
			</output>
		</layer>
		<layer id="278" name="Conv_135" type="Add" version="opset1">
			<data auto_broadcast="numpy"/>
			<input>
				<port id="0" precision="FP32">
					<dim>1</dim>
					<dim>32</dim>
					<dim>160</dim>
					<dim>160</dim>
				</port>
				<port id="1" precision="FP32">
					<dim>1</dim>
					<dim>32</dim>
					<dim>1</dim>
					<dim>1</dim>
				</port>
			</input>
			<output>
				<port id="2" precision="FP32" names="836">
					<dim>1</dim>
					<dim>32</dim>
					<dim>160</dim>
					<dim>160</dim>
				</port>
			</output>
		</layer>
		<layer id="279" name="LeakyRelu_136/weights4176969263" type="Const" version="opset1">
			<data element_type="f32" shape="1" offset="81024" size="4"/>
			<output>
				<port id="0" precision="FP32">
					<dim>1</dim>
				</port>
			</output>
		</layer>
		<layer id="280" name="LeakyRelu_136" type="PReLU" version="opset1">
			<input>
				<port id="0" precision="FP32">
					<dim>1</dim>
					<dim>32</dim>
					<dim>160</dim>
					<dim>160</dim>
				</port>
				<port id="1" precision="FP32">
					<dim>1</dim>
				</port>
			</input>
			<output>
				<port id="2" precision="FP32" names="837">
					<dim>1</dim>
					<dim>32</dim>
					<dim>160</dim>
					<dim>160</dim>
				</port>
			</output>
		</layer>
		<layer id="281" name="Concat_137" type="Concat" version="opset1">
			<data axis="1"/>
			<input>
				<port id="0" precision="FP32">
					<dim>1</dim>
					<dim>64</dim>
					<dim>160</dim>
					<dim>160</dim>
				</port>
				<port id="1" precision="FP32">
					<dim>1</dim>
					<dim>32</dim>
					<dim>160</dim>
					<dim>160</dim>
				</port>
			</input>
			<output>
				<port id="2" precision="FP32" names="838">
					<dim>1</dim>
					<dim>96</dim>
					<dim>160</dim>
					<dim>160</dim>
				</port>
			</output>
		</layer>
		<layer id="282" name="RRDB_trunk.2.RDB3.conv2.weight" type="Const" version="opset1">
			<data element_type="f32" shape="32, 96, 3, 3" offset="7754884" size="110592"/>
			<output>
				<port id="0" precision="FP32" names="RRDB_trunk.2.RDB3.conv2.weight">
					<dim>32</dim>
					<dim>96</dim>
					<dim>3</dim>
					<dim>3</dim>
				</port>
			</output>
		</layer>
		<layer id="283" name="Conv_138/WithoutBiases" type="Convolution" version="opset1">
			<data strides="1, 1" dilations="1, 1" pads_begin="1, 1" pads_end="1, 1" auto_pad="explicit"/>
			<input>
				<port id="0" precision="FP32">
					<dim>1</dim>
					<dim>96</dim>
					<dim>160</dim>
					<dim>160</dim>
				</port>
				<port id="1" precision="FP32">
					<dim>32</dim>
					<dim>96</dim>
					<dim>3</dim>
					<dim>3</dim>
				</port>
			</input>
			<output>
				<port id="2" precision="FP32">
					<dim>1</dim>
					<dim>32</dim>
					<dim>160</dim>
					<dim>160</dim>
				</port>
			</output>
		</layer>
		<layer id="284" name="Conv_138/Dims14924" type="Const" version="opset1">
			<data element_type="f32" shape="1, 32, 1, 1" offset="7865476" size="128"/>
			<output>
				<port id="0" precision="FP32">
					<dim>1</dim>
					<dim>32</dim>
					<dim>1</dim>
					<dim>1</dim>
				</port>
			</output>
		</layer>
		<layer id="285" name="Conv_138" type="Add" version="opset1">
			<data auto_broadcast="numpy"/>
			<input>
				<port id="0" precision="FP32">
					<dim>1</dim>
					<dim>32</dim>
					<dim>160</dim>
					<dim>160</dim>
				</port>
				<port id="1" precision="FP32">
					<dim>1</dim>
					<dim>32</dim>
					<dim>1</dim>
					<dim>1</dim>
				</port>
			</input>
			<output>
				<port id="2" precision="FP32" names="839">
					<dim>1</dim>
					<dim>32</dim>
					<dim>160</dim>
					<dim>160</dim>
				</port>
			</output>
		</layer>
		<layer id="286" name="LeakyRelu_139/weights4250569086" type="Const" version="opset1">
			<data element_type="f32" shape="1" offset="81024" size="4"/>
			<output>
				<port id="0" precision="FP32">
					<dim>1</dim>
				</port>
			</output>
		</layer>
		<layer id="287" name="LeakyRelu_139" type="PReLU" version="opset1">
			<input>
				<port id="0" precision="FP32">
					<dim>1</dim>
					<dim>32</dim>
					<dim>160</dim>
					<dim>160</dim>
				</port>
				<port id="1" precision="FP32">
					<dim>1</dim>
				</port>
			</input>
			<output>
				<port id="2" precision="FP32" names="840">
					<dim>1</dim>
					<dim>32</dim>
					<dim>160</dim>
					<dim>160</dim>
				</port>
			</output>
		</layer>
		<layer id="288" name="Concat_140" type="Concat" version="opset1">
			<data axis="1"/>
			<input>
				<port id="0" precision="FP32">
					<dim>1</dim>
					<dim>64</dim>
					<dim>160</dim>
					<dim>160</dim>
				</port>
				<port id="1" precision="FP32">
					<dim>1</dim>
					<dim>32</dim>
					<dim>160</dim>
					<dim>160</dim>
				</port>
				<port id="2" precision="FP32">
					<dim>1</dim>
					<dim>32</dim>
					<dim>160</dim>
					<dim>160</dim>
				</port>
			</input>
			<output>
				<port id="3" precision="FP32" names="841">
					<dim>1</dim>
					<dim>128</dim>
					<dim>160</dim>
					<dim>160</dim>
				</port>
			</output>
		</layer>
		<layer id="289" name="RRDB_trunk.2.RDB3.conv3.weight" type="Const" version="opset1">
			<data element_type="f32" shape="32, 128, 3, 3" offset="7865604" size="147456"/>
			<output>
				<port id="0" precision="FP32" names="RRDB_trunk.2.RDB3.conv3.weight">
					<dim>32</dim>
					<dim>128</dim>
					<dim>3</dim>
					<dim>3</dim>
				</port>
			</output>
		</layer>
		<layer id="290" name="Conv_141/WithoutBiases" type="Convolution" version="opset1">
			<data strides="1, 1" dilations="1, 1" pads_begin="1, 1" pads_end="1, 1" auto_pad="explicit"/>
			<input>
				<port id="0" precision="FP32">
					<dim>1</dim>
					<dim>128</dim>
					<dim>160</dim>
					<dim>160</dim>
				</port>
				<port id="1" precision="FP32">
					<dim>32</dim>
					<dim>128</dim>
					<dim>3</dim>
					<dim>3</dim>
				</port>
			</input>
			<output>
				<port id="2" precision="FP32">
					<dim>1</dim>
					<dim>32</dim>
					<dim>160</dim>
					<dim>160</dim>
				</port>
			</output>
		</layer>
		<layer id="291" name="Conv_141/Dims16202" type="Const" version="opset1">
			<data element_type="f32" shape="1, 32, 1, 1" offset="8013060" size="128"/>
			<output>
				<port id="0" precision="FP32">
					<dim>1</dim>
					<dim>32</dim>
					<dim>1</dim>
					<dim>1</dim>
				</port>
			</output>
		</layer>
		<layer id="292" name="Conv_141" type="Add" version="opset1">
			<data auto_broadcast="numpy"/>
			<input>
				<port id="0" precision="FP32">
					<dim>1</dim>
					<dim>32</dim>
					<dim>160</dim>
					<dim>160</dim>
				</port>
				<port id="1" precision="FP32">
					<dim>1</dim>
					<dim>32</dim>
					<dim>1</dim>
					<dim>1</dim>
				</port>
			</input>
			<output>
				<port id="2" precision="FP32" names="842">
					<dim>1</dim>
					<dim>32</dim>
					<dim>160</dim>
					<dim>160</dim>
				</port>
			</output>
		</layer>
		<layer id="293" name="LeakyRelu_142/weights4209766677" type="Const" version="opset1">
			<data element_type="f32" shape="1" offset="81024" size="4"/>
			<output>
				<port id="0" precision="FP32">
					<dim>1</dim>
				</port>
			</output>
		</layer>
		<layer id="294" name="LeakyRelu_142" type="PReLU" version="opset1">
			<input>
				<port id="0" precision="FP32">
					<dim>1</dim>
					<dim>32</dim>
					<dim>160</dim>
					<dim>160</dim>
				</port>
				<port id="1" precision="FP32">
					<dim>1</dim>
				</port>
			</input>
			<output>
				<port id="2" precision="FP32" names="843">
					<dim>1</dim>
					<dim>32</dim>
					<dim>160</dim>
					<dim>160</dim>
				</port>
			</output>
		</layer>
		<layer id="295" name="Concat_143" type="Concat" version="opset1">
			<data axis="1"/>
			<input>
				<port id="0" precision="FP32">
					<dim>1</dim>
					<dim>64</dim>
					<dim>160</dim>
					<dim>160</dim>
				</port>
				<port id="1" precision="FP32">
					<dim>1</dim>
					<dim>32</dim>
					<dim>160</dim>
					<dim>160</dim>
				</port>
				<port id="2" precision="FP32">
					<dim>1</dim>
					<dim>32</dim>
					<dim>160</dim>
					<dim>160</dim>
				</port>
				<port id="3" precision="FP32">
					<dim>1</dim>
					<dim>32</dim>
					<dim>160</dim>
					<dim>160</dim>
				</port>
			</input>
			<output>
				<port id="4" precision="FP32" names="844">
					<dim>1</dim>
					<dim>160</dim>
					<dim>160</dim>
					<dim>160</dim>
				</port>
			</output>
		</layer>
		<layer id="296" name="RRDB_trunk.2.RDB3.conv4.weight" type="Const" version="opset1">
			<data element_type="f32" shape="32, 160, 3, 3" offset="8013188" size="184320"/>
			<output>
				<port id="0" precision="FP32" names="RRDB_trunk.2.RDB3.conv4.weight">
					<dim>32</dim>
					<dim>160</dim>
					<dim>3</dim>
					<dim>3</dim>
				</port>
			</output>
		</layer>
		<layer id="297" name="Conv_144/WithoutBiases" type="Convolution" version="opset1">
			<data strides="1, 1" dilations="1, 1" pads_begin="1, 1" pads_end="1, 1" auto_pad="explicit"/>
			<input>
				<port id="0" precision="FP32">
					<dim>1</dim>
					<dim>160</dim>
					<dim>160</dim>
					<dim>160</dim>
				</port>
				<port id="1" precision="FP32">
					<dim>32</dim>
					<dim>160</dim>
					<dim>3</dim>
					<dim>3</dim>
				</port>
			</input>
			<output>
				<port id="2" precision="FP32">
					<dim>1</dim>
					<dim>32</dim>
					<dim>160</dim>
					<dim>160</dim>
				</port>
			</output>
		</layer>
		<layer id="298" name="Conv_144/Dims16034" type="Const" version="opset1">
			<data element_type="f32" shape="1, 32, 1, 1" offset="8197508" size="128"/>
			<output>
				<port id="0" precision="FP32">
					<dim>1</dim>
					<dim>32</dim>
					<dim>1</dim>
					<dim>1</dim>
				</port>
			</output>
		</layer>
		<layer id="299" name="Conv_144" type="Add" version="opset1">
			<data auto_broadcast="numpy"/>
			<input>
				<port id="0" precision="FP32">
					<dim>1</dim>
					<dim>32</dim>
					<dim>160</dim>
					<dim>160</dim>
				</port>
				<port id="1" precision="FP32">
					<dim>1</dim>
					<dim>32</dim>
					<dim>1</dim>
					<dim>1</dim>
				</port>
			</input>
			<output>
				<port id="2" precision="FP32" names="845">
					<dim>1</dim>
					<dim>32</dim>
					<dim>160</dim>
					<dim>160</dim>
				</port>
			</output>
		</layer>
		<layer id="300" name="LeakyRelu_145/weights4189367871" type="Const" version="opset1">
			<data element_type="f32" shape="1" offset="81024" size="4"/>
			<output>
				<port id="0" precision="FP32">
					<dim>1</dim>
				</port>
			</output>
		</layer>
		<layer id="301" name="LeakyRelu_145" type="PReLU" version="opset1">
			<input>
				<port id="0" precision="FP32">
					<dim>1</dim>
					<dim>32</dim>
					<dim>160</dim>
					<dim>160</dim>
				</port>
				<port id="1" precision="FP32">
					<dim>1</dim>
				</port>
			</input>
			<output>
				<port id="2" precision="FP32" names="846">
					<dim>1</dim>
					<dim>32</dim>
					<dim>160</dim>
					<dim>160</dim>
				</port>
			</output>
		</layer>
		<layer id="302" name="Concat_146" type="Concat" version="opset1">
			<data axis="1"/>
			<input>
				<port id="0" precision="FP32">
					<dim>1</dim>
					<dim>64</dim>
					<dim>160</dim>
					<dim>160</dim>
				</port>
				<port id="1" precision="FP32">
					<dim>1</dim>
					<dim>32</dim>
					<dim>160</dim>
					<dim>160</dim>
				</port>
				<port id="2" precision="FP32">
					<dim>1</dim>
					<dim>32</dim>
					<dim>160</dim>
					<dim>160</dim>
				</port>
				<port id="3" precision="FP32">
					<dim>1</dim>
					<dim>32</dim>
					<dim>160</dim>
					<dim>160</dim>
				</port>
				<port id="4" precision="FP32">
					<dim>1</dim>
					<dim>32</dim>
					<dim>160</dim>
					<dim>160</dim>
				</port>
			</input>
			<output>
				<port id="5" precision="FP32" names="847">
					<dim>1</dim>
					<dim>192</dim>
					<dim>160</dim>
					<dim>160</dim>
				</port>
			</output>
		</layer>
		<layer id="303" name="Mul_149/Fused_Mul__copy" type="Const" version="opset1">
			<data element_type="f32" shape="64, 192, 3, 3" offset="8197636" size="442368"/>
			<output>
				<port id="0" precision="FP32" names="RRDB_trunk.2.RDB3.conv5.weight">
					<dim>64</dim>
					<dim>192</dim>
					<dim>3</dim>
					<dim>3</dim>
				</port>
			</output>
		</layer>
		<layer id="304" name="Conv_147/WithoutBiases" type="Convolution" version="opset1">
			<data strides="1, 1" dilations="1, 1" pads_begin="1, 1" pads_end="1, 1" auto_pad="explicit"/>
			<input>
				<port id="0" precision="FP32">
					<dim>1</dim>
					<dim>192</dim>
					<dim>160</dim>
					<dim>160</dim>
				</port>
				<port id="1" precision="FP32">
					<dim>64</dim>
					<dim>192</dim>
					<dim>3</dim>
					<dim>3</dim>
				</port>
			</input>
			<output>
				<port id="2" precision="FP32">
					<dim>1</dim>
					<dim>64</dim>
					<dim>160</dim>
					<dim>160</dim>
				</port>
			</output>
		</layer>
		<layer id="305" name="data_add_2562125626" type="Const" version="opset1">
			<data element_type="f32" shape="1, 64, 1, 1" offset="8640004" size="256"/>
			<output>
				<port id="0" precision="FP32">
					<dim>1</dim>
					<dim>64</dim>
					<dim>1</dim>
					<dim>1</dim>
				</port>
			</output>
		</layer>
		<layer id="306" name="Conv_147/Fused_Add_" type="Add" version="opset1">
			<data auto_broadcast="numpy"/>
			<input>
				<port id="0" precision="FP32">
					<dim>1</dim>
					<dim>64</dim>
					<dim>160</dim>
					<dim>160</dim>
				</port>
				<port id="1" precision="FP32">
					<dim>1</dim>
					<dim>64</dim>
					<dim>1</dim>
					<dim>1</dim>
				</port>
			</input>
			<output>
				<port id="2" precision="FP32" names="850">
					<dim>1</dim>
					<dim>64</dim>
					<dim>160</dim>
					<dim>160</dim>
				</port>
			</output>
		</layer>
		<layer id="307" name="Add_150" type="Add" version="opset1">
			<data auto_broadcast="numpy"/>
			<input>
				<port id="0" precision="FP32">
					<dim>1</dim>
					<dim>64</dim>
					<dim>160</dim>
					<dim>160</dim>
				</port>
				<port id="1" precision="FP32">
					<dim>1</dim>
					<dim>64</dim>
					<dim>160</dim>
					<dim>160</dim>
				</port>
			</input>
			<output>
				<port id="2" precision="FP32" names="851">
					<dim>1</dim>
					<dim>64</dim>
					<dim>160</dim>
					<dim>160</dim>
				</port>
			</output>
		</layer>
		<layer id="308" name="71567154" type="Const" version="opset1">
			<data element_type="f32" shape="1, 1, 1, 1" offset="81024" size="4"/>
			<output>
				<port id="0" precision="FP32" names="715">
					<dim>1</dim>
					<dim>1</dim>
					<dim>1</dim>
					<dim>1</dim>
				</port>
			</output>
		</layer>
		<layer id="309" name="Mul_152" type="Multiply" version="opset1">
			<data auto_broadcast="numpy"/>
			<input>
				<port id="0" precision="FP32">
					<dim>1</dim>
					<dim>64</dim>
					<dim>160</dim>
					<dim>160</dim>
				</port>
				<port id="1" precision="FP32">
					<dim>1</dim>
					<dim>1</dim>
					<dim>1</dim>
					<dim>1</dim>
				</port>
			</input>
			<output>
				<port id="2" precision="FP32" names="853">
					<dim>1</dim>
					<dim>64</dim>
					<dim>160</dim>
					<dim>160</dim>
				</port>
			</output>
		</layer>
		<layer id="310" name="Add_153" type="Add" version="opset1">
			<data auto_broadcast="numpy"/>
			<input>
				<port id="0" precision="FP32">
					<dim>1</dim>
					<dim>64</dim>
					<dim>160</dim>
					<dim>160</dim>
				</port>
				<port id="1" precision="FP32">
					<dim>1</dim>
					<dim>64</dim>
					<dim>160</dim>
					<dim>160</dim>
				</port>
			</input>
			<output>
				<port id="2" precision="FP32" names="854">
					<dim>1</dim>
					<dim>64</dim>
					<dim>160</dim>
					<dim>160</dim>
				</port>
			</output>
		</layer>
		<layer id="311" name="RRDB_trunk.3.RDB1.conv1.weight" type="Const" version="opset1">
			<data element_type="f32" shape="32, 64, 3, 3" offset="8640260" size="73728"/>
			<output>
				<port id="0" precision="FP32" names="RRDB_trunk.3.RDB1.conv1.weight">
					<dim>32</dim>
					<dim>64</dim>
					<dim>3</dim>
					<dim>3</dim>
				</port>
			</output>
		</layer>
		<layer id="312" name="Conv_154/WithoutBiases" type="Convolution" version="opset1">
			<data strides="1, 1" dilations="1, 1" pads_begin="1, 1" pads_end="1, 1" auto_pad="explicit"/>
			<input>
				<port id="0" precision="FP32">
					<dim>1</dim>
					<dim>64</dim>
					<dim>160</dim>
					<dim>160</dim>
				</port>
				<port id="1" precision="FP32">
					<dim>32</dim>
					<dim>64</dim>
					<dim>3</dim>
					<dim>3</dim>
				</port>
			</input>
			<output>
				<port id="2" precision="FP32">
					<dim>1</dim>
					<dim>32</dim>
					<dim>160</dim>
					<dim>160</dim>
				</port>
			</output>
		</layer>
		<layer id="313" name="Conv_154/Dims15572" type="Const" version="opset1">
			<data element_type="f32" shape="1, 32, 1, 1" offset="8713988" size="128"/>
			<output>
				<port id="0" precision="FP32">
					<dim>1</dim>
					<dim>32</dim>
					<dim>1</dim>
					<dim>1</dim>
				</port>
			</output>
		</layer>
		<layer id="314" name="Conv_154" type="Add" version="opset1">
			<data auto_broadcast="numpy"/>
			<input>
				<port id="0" precision="FP32">
					<dim>1</dim>
					<dim>32</dim>
					<dim>160</dim>
					<dim>160</dim>
				</port>
				<port id="1" precision="FP32">
					<dim>1</dim>
					<dim>32</dim>
					<dim>1</dim>
					<dim>1</dim>
				</port>
			</input>
			<output>
				<port id="2" precision="FP32" names="855">
					<dim>1</dim>
					<dim>32</dim>
					<dim>160</dim>
					<dim>160</dim>
				</port>
			</output>
		</layer>
		<layer id="315" name="LeakyRelu_155/weights4192967811" type="Const" version="opset1">
			<data element_type="f32" shape="1" offset="81024" size="4"/>
			<output>
				<port id="0" precision="FP32">
					<dim>1</dim>
				</port>
			</output>
		</layer>
		<layer id="316" name="LeakyRelu_155" type="PReLU" version="opset1">
			<input>
				<port id="0" precision="FP32">
					<dim>1</dim>
					<dim>32</dim>
					<dim>160</dim>
					<dim>160</dim>
				</port>
				<port id="1" precision="FP32">
					<dim>1</dim>
				</port>
			</input>
			<output>
				<port id="2" precision="FP32" names="856">
					<dim>1</dim>
					<dim>32</dim>
					<dim>160</dim>
					<dim>160</dim>
				</port>
			</output>
		</layer>
		<layer id="317" name="Concat_156" type="Concat" version="opset1">
			<data axis="1"/>
			<input>
				<port id="0" precision="FP32">
					<dim>1</dim>
					<dim>64</dim>
					<dim>160</dim>
					<dim>160</dim>
				</port>
				<port id="1" precision="FP32">
					<dim>1</dim>
					<dim>32</dim>
					<dim>160</dim>
					<dim>160</dim>
				</port>
			</input>
			<output>
				<port id="2" precision="FP32" names="857">
					<dim>1</dim>
					<dim>96</dim>
					<dim>160</dim>
					<dim>160</dim>
				</port>
			</output>
		</layer>
		<layer id="318" name="RRDB_trunk.3.RDB1.conv2.weight" type="Const" version="opset1">
			<data element_type="f32" shape="32, 96, 3, 3" offset="8714116" size="110592"/>
			<output>
				<port id="0" precision="FP32" names="RRDB_trunk.3.RDB1.conv2.weight">
					<dim>32</dim>
					<dim>96</dim>
					<dim>3</dim>
					<dim>3</dim>
				</port>
			</output>
		</layer>
		<layer id="319" name="Conv_157/WithoutBiases" type="Convolution" version="opset1">
			<data strides="1, 1" dilations="1, 1" pads_begin="1, 1" pads_end="1, 1" auto_pad="explicit"/>
			<input>
				<port id="0" precision="FP32">
					<dim>1</dim>
					<dim>96</dim>
					<dim>160</dim>
					<dim>160</dim>
				</port>
				<port id="1" precision="FP32">
					<dim>32</dim>
					<dim>96</dim>
					<dim>3</dim>
					<dim>3</dim>
				</port>
			</input>
			<output>
				<port id="2" precision="FP32">
					<dim>1</dim>
					<dim>32</dim>
					<dim>160</dim>
					<dim>160</dim>
				</port>
			</output>
		</layer>
		<layer id="320" name="Conv_157/Dims16112" type="Const" version="opset1">
			<data element_type="f32" shape="1, 32, 1, 1" offset="8824708" size="128"/>
			<output>
				<port id="0" precision="FP32">
					<dim>1</dim>
					<dim>32</dim>
					<dim>1</dim>
					<dim>1</dim>
				</port>
			</output>
		</layer>
		<layer id="321" name="Conv_157" type="Add" version="opset1">
			<data auto_broadcast="numpy"/>
			<input>
				<port id="0" precision="FP32">
					<dim>1</dim>
					<dim>32</dim>
					<dim>160</dim>
					<dim>160</dim>
				</port>
				<port id="1" precision="FP32">
					<dim>1</dim>
					<dim>32</dim>
					<dim>1</dim>
					<dim>1</dim>
				</port>
			</input>
			<output>
				<port id="2" precision="FP32" names="858">
					<dim>1</dim>
					<dim>32</dim>
					<dim>160</dim>
					<dim>160</dim>
				</port>
			</output>
		</layer>
		<layer id="322" name="LeakyRelu_158/weights4170168081" type="Const" version="opset1">
			<data element_type="f32" shape="1" offset="81024" size="4"/>
			<output>
				<port id="0" precision="FP32">
					<dim>1</dim>
				</port>
			</output>
		</layer>
		<layer id="323" name="LeakyRelu_158" type="PReLU" version="opset1">
			<input>
				<port id="0" precision="FP32">
					<dim>1</dim>
					<dim>32</dim>
					<dim>160</dim>
					<dim>160</dim>
				</port>
				<port id="1" precision="FP32">
					<dim>1</dim>
				</port>
			</input>
			<output>
				<port id="2" precision="FP32" names="859">
					<dim>1</dim>
					<dim>32</dim>
					<dim>160</dim>
					<dim>160</dim>
				</port>
			</output>
		</layer>
		<layer id="324" name="Concat_159" type="Concat" version="opset1">
			<data axis="1"/>
			<input>
				<port id="0" precision="FP32">
					<dim>1</dim>
					<dim>64</dim>
					<dim>160</dim>
					<dim>160</dim>
				</port>
…
		<edge from-layer="1860" from-port="2" to-layer="1861" to-port="3"/>
		<edge from-layer="1861" from-port="4" to-layer="1863" to-port="0"/>
		<edge from-layer="1862" from-port="0" to-layer="1863" to-port="1"/>
		<edge from-layer="1863" from-port="2" to-layer="1865" to-port="0"/>
		<edge from-layer="1864" from-port="0" to-layer="1865" to-port="1"/>
		<edge from-layer="1865" from-port="2" to-layer="1867" to-port="0"/>
		<edge from-layer="1866" from-port="0" to-layer="1867" to-port="1"/>
		<edge from-layer="1867" from-port="2" to-layer="1868" to-port="4"/>
		<edge from-layer="1868" from-port="5" to-layer="1870" to-port="0"/>
		<edge from-layer="1869" from-port="0" to-layer="1870" to-port="1"/>
		<edge from-layer="1870" from-port="2" to-layer="1872" to-port="0"/>
		<edge from-layer="1871" from-port="0" to-layer="1872" to-port="1"/>
		<edge from-layer="1872" from-port="2" to-layer="1873" to-port="0"/>
		<edge from-layer="1873" from-port="2" to-layer="1906" to-port="1"/>
		<edge from-layer="1873" from-port="2" to-layer="1875" to-port="0"/>
		<edge from-layer="1873" from-port="2" to-layer="1880" to-port="0"/>
		<edge from-layer="1873" from-port="2" to-layer="1901" to-port="0"/>
		<edge from-layer="1873" from-port="2" to-layer="1894" to-port="0"/>
		<edge from-layer="1873" from-port="2" to-layer="1887" to-port="0"/>
		<edge from-layer="1874" from-port="0" to-layer="1875" to-port="1"/>
		<edge from-layer="1875" from-port="2" to-layer="1877" to-port="0"/>
		<edge from-layer="1876" from-port="0" to-layer="1877" to-port="1"/>
		<edge from-layer="1877" from-port="2" to-layer="1879" to-port="0"/>
		<edge from-layer="1878" from-port="0" to-layer="1879" to-port="1"/>
		<edge from-layer="1879" from-port="2" to-layer="1887" to-port="1"/>
		<edge from-layer="1879" from-port="2" to-layer="1901" to-port="1"/>
		<edge from-layer="1879" from-port="2" to-layer="1880" to-port="1"/>
		<edge from-layer="1879" from-port="2" to-layer="1894" to-port="1"/>
		<edge from-layer="1880" from-port="2" to-layer="1882" to-port="0"/>
		<edge from-layer="1881" from-port="0" to-layer="1882" to-port="1"/>
		<edge from-layer="1882" from-port="2" to-layer="1884" to-port="0"/>
		<edge from-layer="1883" from-port="0" to-layer="1884" to-port="1"/>
		<edge from-layer="1884" from-port="2" to-layer="1886" to-port="0"/>
		<edge from-layer="1885" from-port="0" to-layer="1886" to-port="1"/>
		<edge from-layer="1886" from-port="2" to-layer="1894" to-port="2"/>
		<edge from-layer="1886" from-port="2" to-layer="1901" to-port="2"/>
		<edge from-layer="1886" from-port="2" to-layer="1887" to-port="2"/>
		<edge from-layer="1887" from-port="3" to-layer="1889" to-port="0"/>
		<edge from-layer="1888" from-port="0" to-layer="1889" to-port="1"/>
		<edge from-layer="1889" from-port="2" to-layer="1891" to-port="0"/>
		<edge from-layer="1890" from-port="0" to-layer="1891" to-port="1"/>
		<edge from-layer="1891" from-port="2" to-layer="1893" to-port="0"/>
		<edge from-layer="1892" from-port="0" to-layer="1893" to-port="1"/>
		<edge from-layer="1893" from-port="2" to-layer="1894" to-port="3"/>
		<edge from-layer="1893" from-port="2" to-layer="1901" to-port="3"/>
		<edge from-layer="1894" from-port="4" to-layer="1896" to-port="0"/>
		<edge from-layer="1895" from-port="0" to-layer="1896" to-port="1"/>
		<edge from-layer="1896" from-port="2" to-layer="1898" to-port="0"/>
		<edge from-layer="1897" from-port="0" to-layer="1898" to-port="1"/>
		<edge from-layer="1898" from-port="2" to-layer="1900" to-port="0"/>
		<edge from-layer="1899" from-port="0" to-layer="1900" to-port="1"/>
		<edge from-layer="1900" from-port="2" to-layer="1901" to-port="4"/>
		<edge from-layer="1901" from-port="5" to-layer="1903" to-port="0"/>
		<edge from-layer="1902" from-port="0" to-layer="1903" to-port="1"/>
		<edge from-layer="1903" from-port="2" to-layer="1905" to-port="0"/>
		<edge from-layer="1904" from-port="0" to-layer="1905" to-port="1"/>
		<edge from-layer="1905" from-port="2" to-layer="1906" to-port="0"/>
		<edge from-layer="1906" from-port="2" to-layer="1927" to-port="0"/>
		<edge from-layer="1906" from-port="2" to-layer="1920" to-port="0"/>
		<edge from-layer="1906" from-port="2" to-layer="1934" to-port="0"/>
		<edge from-layer="1906" from-port="2" to-layer="1939" to-port="1"/>
		<edge from-layer="1906" from-port="2" to-layer="1913" to-port="0"/>
		<edge from-layer="1906" from-port="2" to-layer="1908" to-port="0"/>
		<edge from-layer="1907" from-port="0" to-layer="1908" to-port="1"/>
		<edge from-layer="1908" from-port="2" to-layer="1910" to-port="0"/>
		<edge from-layer="1909" from-port="0" to-layer="1910" to-port="1"/>
		<edge from-layer="1910" from-port="2" to-layer="1912" to-port="0"/>
		<edge from-layer="1911" from-port="0" to-layer="1912" to-port="1"/>
		<edge from-layer="1912" from-port="2" to-layer="1913" to-port="1"/>
		<edge from-layer="1912" from-port="2" to-layer="1934" to-port="1"/>
		<edge from-layer="1912" from-port="2" to-layer="1920" to-port="1"/>
		<edge from-layer="1912" from-port="2" to-layer="1927" to-port="1"/>
		<edge from-layer="1913" from-port="2" to-layer="1915" to-port="0"/>
		<edge from-layer="1914" from-port="0" to-layer="1915" to-port="1"/>
		<edge from-layer="1915" from-port="2" to-layer="1917" to-port="0"/>
		<edge from-layer="1916" from-port="0" to-layer="1917" to-port="1"/>
		<edge from-layer="1917" from-port="2" to-layer="1919" to-port="0"/>
		<edge from-layer="1918" from-port="0" to-layer="1919" to-port="1"/>
		<edge from-layer="1919" from-port="2" to-layer="1920" to-port="2"/>
		<edge from-layer="1919" from-port="2" to-layer="1927" to-port="2"/>
		<edge from-layer="1919" from-port="2" to-layer="1934" to-port="2"/>
		<edge from-layer="1920" from-port="3" to-layer="1922" to-port="0"/>
		<edge from-layer="1921" from-port="0" to-layer="1922" to-port="1"/>
		<edge from-layer="1922" from-port="2" to-layer="1924" to-port="0"/>
		<edge from-layer="1923" from-port="0" to-layer="1924" to-port="1"/>
		<edge from-layer="1924" from-port="2" to-layer="1926" to-port="0"/>
		<edge from-layer="1925" from-port="0" to-layer="1926" to-port="1"/>
		<edge from-layer="1926" from-port="2" to-layer="1927" to-port="3"/>
		<edge from-layer="1926" from-port="2" to-layer="1934" to-port="3"/>
		<edge from-layer="1927" from-port="4" to-layer="1929" to-port="0"/>
		<edge from-layer="1928" from-port="0" to-layer="1929" to-port="1"/>
		<edge from-layer="1929" from-port="2" to-layer="1931" to-port="0"/>
		<edge from-layer="1930" from-port="0" to-layer="1931" to-port="1"/>
		<edge from-layer="1931" from-port="2" to-layer="1933" to-port="0"/>
		<edge from-layer="1932" from-port="0" to-layer="1933" to-port="1"/>
		<edge from-layer="1933" from-port="2" to-layer="1934" to-port="4"/>
		<edge from-layer="1934" from-port="5" to-layer="1936" to-port="0"/>
		<edge from-layer="1935" from-port="0" to-layer="1936" to-port="1"/>
		<edge from-layer="1936" from-port="2" to-layer="1938" to-port="0"/>
		<edge from-layer="1937" from-port="0" to-layer="1938" to-port="1"/>
		<edge from-layer="1938" from-port="2" to-layer="1939" to-port="0"/>
		<edge from-layer="1939" from-port="2" to-layer="1941" to-port="0"/>
		<edge from-layer="1940" from-port="0" to-layer="1941" to-port="1"/>
		<edge from-layer="1941" from-port="2" to-layer="1942" to-port="0"/>
		<edge from-layer="1942" from-port="2" to-layer="1944" to-port="0"/>
		<edge from-layer="1942" from-port="2" to-layer="2044" to-port="1"/>
		<edge from-layer="1942" from-port="2" to-layer="1975" to-port="1"/>
		<edge from-layer="1942" from-port="2" to-layer="1949" to-port="0"/>
		<edge from-layer="1942" from-port="2" to-layer="1970" to-port="0"/>
		<edge from-layer="1942" from-port="2" to-layer="1963" to-port="0"/>
		<edge from-layer="1942" from-port="2" to-layer="1956" to-port="0"/>
		<edge from-layer="1943" from-port="0" to-layer="1944" to-port="1"/>
		<edge from-layer="1944" from-port="2" to-layer="1946" to-port="0"/>
		<edge from-layer="1945" from-port="0" to-layer="1946" to-port="1"/>
		<edge from-layer="1946" from-port="2" to-layer="1948" to-port="0"/>
		<edge from-layer="1947" from-port="0" to-layer="1948" to-port="1"/>
		<edge from-layer="1948" from-port="2" to-layer="1956" to-port="1"/>
		<edge from-layer="1948" from-port="2" to-layer="1970" to-port="1"/>
		<edge from-layer="1948" from-port="2" to-layer="1949" to-port="1"/>
		<edge from-layer="1948" from-port="2" to-layer="1963" to-port="1"/>
		<edge from-layer="1949" from-port="2" to-layer="1951" to-port="0"/>
		<edge from-layer="1950" from-port="0" to-layer="1951" to-port="1"/>
		<edge from-layer="1951" from-port="2" to-layer="1953" to-port="0"/>
		<edge from-layer="1952" from-port="0" to-layer="1953" to-port="1"/>
		<edge from-layer="1953" from-port="2" to-layer="1955" to-port="0"/>
		<edge from-layer="1954" from-port="0" to-layer="1955" to-port="1"/>
		<edge from-layer="1955" from-port="2" to-layer="1963" to-port="2"/>
		<edge from-layer="1955" from-port="2" to-layer="1956" to-port="2"/>
		<edge from-layer="1955" from-port="2" to-layer="1970" to-port="2"/>
		<edge from-layer="1956" from-port="3" to-layer="1958" to-port="0"/>
		<edge from-layer="1957" from-port="0" to-layer="1958" to-port="1"/>
		<edge from-layer="1958" from-port="2" to-layer="1960" to-port="0"/>
		<edge from-layer="1959" from-port="0" to-layer="1960" to-port="1"/>
		<edge from-layer="1960" from-port="2" to-layer="1962" to-port="0"/>
		<edge from-layer="1961" from-port="0" to-layer="1962" to-port="1"/>
		<edge from-layer="1962" from-port="2" to-layer="1970" to-port="3"/>
		<edge from-layer="1962" from-port="2" to-layer="1963" to-port="3"/>
		<edge from-layer="1963" from-port="4" to-layer="1965" to-port="0"/>
		<edge from-layer="1964" from-port="0" to-layer="1965" to-port="1"/>
		<edge from-layer="1965" from-port="2" to-layer="1967" to-port="0"/>
		<edge from-layer="1966" from-port="0" to-layer="1967" to-port="1"/>
		<edge from-layer="1967" from-port="2" to-layer="1969" to-port="0"/>
		<edge from-layer="1968" from-port="0" to-layer="1969" to-port="1"/>
		<edge from-layer="1969" from-port="2" to-layer="1970" to-port="4"/>
		<edge from-layer="1970" from-port="5" to-layer="1972" to-port="0"/>
		<edge from-layer="1971" from-port="0" to-layer="1972" to-port="1"/>
		<edge from-layer="1972" from-port="2" to-layer="1974" to-port="0"/>
		<edge from-layer="1973" from-port="0" to-layer="1974" to-port="1"/>
		<edge from-layer="1974" from-port="2" to-layer="1975" to-port="0"/>
		<edge from-layer="1975" from-port="2" to-layer="2003" to-port="0"/>
		<edge from-layer="1975" from-port="2" to-layer="1996" to-port="0"/>
		<edge from-layer="1975" from-port="2" to-layer="2008" to-port="1"/>
		<edge from-layer="1975" from-port="2" to-layer="1982" to-port="0"/>
		<edge from-layer="1975" from-port="2" to-layer="1977" to-port="0"/>
		<edge from-layer="1975" from-port="2" to-layer="1989" to-port="0"/>
		<edge from-layer="1976" from-port="0" to-layer="1977" to-port="1"/>
		<edge from-layer="1977" from-port="2" to-layer="1979" to-port="0"/>
		<edge from-layer="1978" from-port="0" to-layer="1979" to-port="1"/>
		<edge from-layer="1979" from-port="2" to-layer="1981" to-port="0"/>
		<edge from-layer="1980" from-port="0" to-layer="1981" to-port="1"/>
		<edge from-layer="1981" from-port="2" to-layer="2003" to-port="1"/>
		<edge from-layer="1981" from-port="2" to-layer="1996" to-port="1"/>
		<edge from-layer="1981" from-port="2" to-layer="1989" to-port="1"/>
		<edge from-layer="1981" from-port="2" to-layer="1982" to-port="1"/>
		<edge from-layer="1982" from-port="2" to-layer="1984" to-port="0"/>
		<edge from-layer="1983" from-port="0" to-layer="1984" to-port="1"/>
		<edge from-layer="1984" from-port="2" to-layer="1986" to-port="0"/>
		<edge from-layer="1985" from-port="0" to-layer="1986" to-port="1"/>
		<edge from-layer="1986" from-port="2" to-layer="1988" to-port="0"/>
		<edge from-layer="1987" from-port="0" to-layer="1988" to-port="1"/>
		<edge from-layer="1988" from-port="2" to-layer="1989" to-port="2"/>
		<edge from-layer="1988" from-port="2" to-layer="1996" to-port="2"/>
		<edge from-layer="1988" from-port="2" to-layer="2003" to-port="2"/>
		<edge from-layer="1989" from-port="3" to-layer="1991" to-port="0"/>
		<edge from-layer="1990" from-port="0" to-layer="1991" to-port="1"/>
		<edge from-layer="1991" from-port="2" to-layer="1993" to-port="0"/>
		<edge from-layer="1992" from-port="0" to-layer="1993" to-port="1"/>
		<edge from-layer="1993" from-port="2" to-layer="1995" to-port="0"/>
		<edge from-layer="1994" from-port="0" to-layer="1995" to-port="1"/>
		<edge from-layer="1995" from-port="2" to-layer="1996" to-port="3"/>
		<edge from-layer="1995" from-port="2" to-layer="2003" to-port="3"/>
		<edge from-layer="1996" from-port="4" to-layer="1998" to-port="0"/>
		<edge from-layer="1997" from-port="0" to-layer="1998" to-port="1"/>
		<edge from-layer="1998" from-port="2" to-layer="2000" to-port="0"/>
		<edge from-layer="1999" from-port="0" to-layer="2000" to-port="1"/>
		<edge from-layer="2000" from-port="2" to-layer="2002" to-port="0"/>
		<edge from-layer="2001" from-port="0" to-layer="2002" to-port="1"/>
		<edge from-layer="2002" from-port="2" to-layer="2003" to-port="4"/>
		<edge from-layer="2003" from-port="5" to-layer="2005" to-port="0"/>
		<edge from-layer="2004" from-port="0" to-layer="2005" to-port="1"/>
		<edge from-layer="2005" from-port="2" to-layer="2007" to-port="0"/>
		<edge from-layer="2006" from-port="0" to-layer="2007" to-port="1"/>
		<edge from-layer="2007" from-port="2" to-layer="2008" to-port="0"/>
		<edge from-layer="2008" from-port="2" to-layer="2029" to-port="0"/>
		<edge from-layer="2008" from-port="2" to-layer="2041" to-port="1"/>
		<edge from-layer="2008" from-port="2" to-layer="2036" to-port="0"/>
		<edge from-layer="2008" from-port="2" to-layer="2022" to-port="0"/>
		<edge from-layer="2008" from-port="2" to-layer="2015" to-port="0"/>
		<edge from-layer="2008" from-port="2" to-layer="2010" to-port="0"/>
		<edge from-layer="2009" from-port="0" to-layer="2010" to-port="1"/>
		<edge from-layer="2010" from-port="2" to-layer="2012" to-port="0"/>
		<edge from-layer="2011" from-port="0" to-layer="2012" to-port="1"/>
		<edge from-layer="2012" from-port="2" to-layer="2014" to-port="0"/>
		<edge from-layer="2013" from-port="0" to-layer="2014" to-port="1"/>
		<edge from-layer="2014" from-port="2" to-layer="2015" to-port="1"/>
		<edge from-layer="2014" from-port="2" to-layer="2036" to-port="1"/>
		<edge from-layer="2014" from-port="2" to-layer="2029" to-port="1"/>
		<edge from-layer="2014" from-port="2" to-layer="2022" to-port="1"/>
		<edge from-layer="2015" from-port="2" to-layer="2017" to-port="0"/>
		<edge from-layer="2016" from-port="0" to-layer="2017" to-port="1"/>
		<edge from-layer="2017" from-port="2" to-layer="2019" to-port="0"/>
		<edge from-layer="2018" from-port="0" to-layer="2019" to-port="1"/>
		<edge from-layer="2019" from-port="2" to-layer="2021" to-port="0"/>
		<edge from-layer="2020" from-port="0" to-layer="2021" to-port="1"/>
		<edge from-layer="2021" from-port="2" to-layer="2022" to-port="2"/>
		<edge from-layer="2021" from-port="2" to-layer="2036" to-port="2"/>
		<edge from-layer="2021" from-port="2" to-layer="2029" to-port="2"/>
		<edge from-layer="2022" from-port="3" to-layer="2024" to-port="0"/>
		<edge from-layer="2023" from-port="0" to-layer="2024" to-port="1"/>
		<edge from-layer="2024" from-port="2" to-layer="2026" to-port="0"/>
		<edge from-layer="2025" from-port="0" to-layer="2026" to-port="1"/>
		<edge from-layer="2026" from-port="2" to-layer="2028" to-port="0"/>
		<edge from-layer="2027" from-port="0" to-layer="2028" to-port="1"/>
		<edge from-layer="2028" from-port="2" to-layer="2036" to-port="3"/>
		<edge from-layer="2028" from-port="2" to-layer="2029" to-port="3"/>
		<edge from-layer="2029" from-port="4" to-layer="2031" to-port="0"/>
		<edge from-layer="2030" from-port="0" to-layer="2031" to-port="1"/>
		<edge from-layer="2031" from-port="2" to-layer="2033" to-port="0"/>
		<edge from-layer="2032" from-port="0" to-layer="2033" to-port="1"/>
		<edge from-layer="2033" from-port="2" to-layer="2035" to-port="0"/>
		<edge from-layer="2034" from-port="0" to-layer="2035" to-port="1"/>
		<edge from-layer="2035" from-port="2" to-layer="2036" to-port="4"/>
		<edge from-layer="2036" from-port="5" to-layer="2038" to-port="0"/>
		<edge from-layer="2037" from-port="0" to-layer="2038" to-port="1"/>
		<edge from-layer="2038" from-port="2" to-layer="2040" to-port="0"/>
		<edge from-layer="2039" from-port="0" to-layer="2040" to-port="1"/>
		<edge from-layer="2040" from-port="2" to-layer="2041" to-port="0"/>
		<edge from-layer="2041" from-port="2" to-layer="2043" to-port="0"/>
		<edge from-layer="2042" from-port="0" to-layer="2043" to-port="1"/>
		<edge from-layer="2043" from-port="2" to-layer="2044" to-port="0"/>
		<edge from-layer="2044" from-port="2" to-layer="2146" to-port="1"/>
		<edge from-layer="2044" from-port="2" to-layer="2077" to-port="1"/>
		<edge from-layer="2044" from-port="2" to-layer="2072" to-port="0"/>
		<edge from-layer="2044" from-port="2" to-layer="2065" to-port="0"/>
		<edge from-layer="2044" from-port="2" to-layer="2058" to-port="0"/>
		<edge from-layer="2044" from-port="2" to-layer="2051" to-port="0"/>
		<edge from-layer="2044" from-port="2" to-layer="2046" to-port="0"/>
		<edge from-layer="2045" from-port="0" to-layer="2046" to-port="1"/>
		<edge from-layer="2046" from-port="2" to-layer="2048" to-port="0"/>
		<edge from-layer="2047" from-port="0" to-layer="2048" to-port="1"/>
		<edge from-layer="2048" from-port="2" to-layer="2050" to-port="0"/>
		<edge from-layer="2049" from-port="0" to-layer="2050" to-port="1"/>
		<edge from-layer="2050" from-port="2" to-layer="2051" to-port="1"/>
		<edge from-layer="2050" from-port="2" to-layer="2072" to-port="1"/>
		<edge from-layer="2050" from-port="2" to-layer="2065" to-port="1"/>
		<edge from-layer="2050" from-port="2" to-layer="2058" to-port="1"/>
		<edge from-layer="2051" from-port="2" to-layer="2053" to-port="0"/>
		<edge from-layer="2052" from-port="0" to-layer="2053" to-port="1"/>
		<edge from-layer="2053" from-port="2" to-layer="2055" to-port="0"/>
		<edge from-layer="2054" from-port="0" to-layer="2055" to-port="1"/>
		<edge from-layer="2055" from-port="2" to-layer="2057" to-port="0"/>
		<edge from-layer="2056" from-port="0" to-layer="2057" to-port="1"/>
		<edge from-layer="2057" from-port="2" to-layer="2058" to-port="2"/>
		<edge from-layer="2057" from-port="2" to-layer="2072" to-port="2"/>
		<edge from-layer="2057" from-port="2" to-layer="2065" to-port="2"/>
		<edge from-layer="2058" from-port="3" to-layer="2060" to-port="0"/>
		<edge from-layer="2059" from-port="0" to-layer="2060" to-port="1"/>
		<edge from-layer="2060" from-port="2" to-layer="2062" to-port="0"/>
		<edge from-layer="2061" from-port="0" to-layer="2062" to-port="1"/>
		<edge from-layer="2062" from-port="2" to-layer="2064" to-port="0"/>
		<edge from-layer="2063" from-port="0" to-layer="2064" to-port="1"/>
		<edge from-layer="2064" from-port="2" to-layer="2072" to-port="3"/>
		<edge from-layer="2064" from-port="2" to-layer="2065" to-port="3"/>
		<edge from-layer="2065" from-port="4" to-layer="2067" to-port="0"/>
		<edge from-layer="2066" from-port="0" to-layer="2067" to-port="1"/>
		<edge from-layer="2067" from-port="2" to-layer="2069" to-port="0"/>
		<edge from-layer="2068" from-port="0" to-layer="2069" to-port="1"/>
		<edge from-layer="2069" from-port="2" to-layer="2071" to-port="0"/>
		<edge from-layer="2070" from-port="0" to-layer="2071" to-port="1"/>
		<edge from-layer="2071" from-port="2" to-layer="2072" to-port="4"/>
		<edge from-layer="2072" from-port="5" to-layer="2074" to-port="0"/>
		<edge from-layer="2073" from-port="0" to-layer="2074" to-port="1"/>
		<edge from-layer="2074" from-port="2" to-layer="2076" to-port="0"/>
		<edge from-layer="2075" from-port="0" to-layer="2076" to-port="1"/>
		<edge from-layer="2076" from-port="2" to-layer="2077" to-port="0"/>
		<edge from-layer="2077" from-port="2" to-layer="2105" to-port="0"/>
		<edge from-layer="2077" from-port="2" to-layer="2110" to-port="1"/>
		<edge from-layer="2077" from-port="2" to-layer="2091" to-port="0"/>
		<edge from-layer="2077" from-port="2" to-layer="2098" to-port="0"/>
		<edge from-layer="2077" from-port="2" to-layer="2084" to-port="0"/>
		<edge from-layer="2077" from-port="2" to-layer="2079" to-port="0"/>
		<edge from-layer="2078" from-port="0" to-layer="2079" to-port="1"/>
		<edge from-layer="2079" from-port="2" to-layer="2081" to-port="0"/>
		<edge from-layer="2080" from-port="0" to-layer="2081" to-port="1"/>
		<edge from-layer="2081" from-port="2" to-layer="2083" to-port="0"/>
		<edge from-layer="2082" from-port="0" to-layer="2083" to-port="1"/>
		<edge from-layer="2083" from-port="2" to-layer="2084" to-port="1"/>
		<edge from-layer="2083" from-port="2" to-layer="2091" to-port="1"/>
		<edge from-layer="2083" from-port="2" to-layer="2105" to-port="1"/>
		<edge from-layer="2083" from-port="2" to-layer="2098" to-port="1"/>
		<edge from-layer="2084" from-port="2" to-layer="2086" to-port="0"/>
		<edge from-layer="2085" from-port="0" to-layer="2086" to-port="1"/>
		<edge from-layer="2086" from-port="2" to-layer="2088" to-port="0"/>
		<edge from-layer="2087" from-port="0" to-layer="2088" to-port="1"/>
		<edge from-layer="2088" from-port="2" to-layer="2090" to-port="0"/>
		<edge from-layer="2089" from-port="0" to-layer="2090" to-port="1"/>
		<edge from-layer="2090" from-port="2" to-layer="2098" to-port="2"/>
		<edge from-layer="2090" from-port="2" to-layer="2091" to-port="2"/>
		<edge from-layer="2090" from-port="2" to-layer="2105" to-port="2"/>
		<edge from-layer="2091" from-port="3" to-layer="2093" to-port="0"/>
		<edge from-layer="2092" from-port="0" to-layer="2093" to-port="1"/>
		<edge from-layer="2093" from-port="2" to-layer="2095" to-port="0"/>
		<edge from-layer="2094" from-port="0" to-layer="2095" to-port="1"/>
		<edge from-layer="2095" from-port="2" to-layer="2097" to-port="0"/>
		<edge from-layer="2096" from-port="0" to-layer="2097" to-port="1"/>
		<edge from-layer="2097" from-port="2" to-layer="2105" to-port="3"/>
		<edge from-layer="2097" from-port="2" to-layer="2098" to-port="3"/>
		<edge from-layer="2098" from-port="4" to-layer="2100" to-port="0"/>
		<edge from-layer="2099" from-port="0" to-layer="2100" to-port="1"/>
		<edge from-layer="2100" from-port="2" to-layer="2102" to-port="0"/>
		<edge from-layer="2101" from-port="0" to-layer="2102" to-port="1"/>
		<edge from-layer="2102" from-port="2" to-layer="2104" to-port="0"/>
		<edge from-layer="2103" from-port="0" to-layer="2104" to-port="1"/>
		<edge from-layer="2104" from-port="2" to-layer="2105" to-port="4"/>
		<edge from-layer="2105" from-port="5" to-layer="2107" to-port="0"/>
		<edge from-layer="2106" from-port="0" to-layer="2107" to-port="1"/>
		<edge from-layer="2107" from-port="2" to-layer="2109" to-port="0"/>
		<edge from-layer="2108" from-port="0" to-layer="2109" to-port="1"/>
		<edge from-layer="2109" from-port="2" to-layer="2110" to-port="0"/>
		<edge from-layer="2110" from-port="2" to-layer="2138" to-port="0"/>
		<edge from-layer="2110" from-port="2" to-layer="2143" to-port="1"/>
		<edge from-layer="2110" from-port="2" to-layer="2131" to-port="0"/>
		<edge from-layer="2110" from-port="2" to-layer="2124" to-port="0"/>
		<edge from-layer="2110" from-port="2" to-layer="2112" to-port="0"/>
		<edge from-layer="2110" from-port="2" to-layer="2117" to-port="0"/>
		<edge from-layer="2111" from-port="0" to-layer="2112" to-port="1"/>
		<edge from-layer="2112" from-port="2" to-layer="2114" to-port="0"/>
		<edge from-layer="2113" from-port="0" to-layer="2114" to-port="1"/>
		<edge from-layer="2114" from-port="2" to-layer="2116" to-port="0"/>
		<edge from-layer="2115" from-port="0" to-layer="2116" to-port="1"/>
		<edge from-layer="2116" from-port="2" to-layer="2117" to-port="1"/>
		<edge from-layer="2116" from-port="2" to-layer="2138" to-port="1"/>
		<edge from-layer="2116" from-port="2" to-layer="2131" to-port="1"/>
		<edge from-layer="2116" from-port="2" to-layer="2124" to-port="1"/>
		<edge from-layer="2117" from-port="2" to-layer="2119" to-port="0"/>
		<edge from-layer="2118" from-port="0" to-layer="2119" to-port="1"/>
		<edge from-layer="2119" from-port="2" to-layer="2121" to-port="0"/>
		<edge from-layer="2120" from-port="0" to-layer="2121" to-port="1"/>
		<edge from-layer="2121" from-port="2" to-layer="2123" to-port="0"/>
		<edge from-layer="2122" from-port="0" to-layer="2123" to-port="1"/>
		<edge from-layer="2123" from-port="2" to-layer="2124" to-port="2"/>
		<edge from-layer="2123" from-port="2" to-layer="2131" to-port="2"/>
		<edge from-layer="2123" from-port="2" to-layer="2138" to-port="2"/>
		<edge from-layer="2124" from-port="3" to-layer="2126" to-port="0"/>
		<edge from-layer="2125" from-port="0" to-layer="2126" to-port="1"/>
		<edge from-layer="2126" from-port="2" to-layer="2128" to-port="0"/>
		<edge from-layer="2127" from-port="0" to-layer="2128" to-port="1"/>
		<edge from-layer="2128" from-port="2" to-layer="2130" to-port="0"/>
		<edge from-layer="2129" from-port="0" to-layer="2130" to-port="1"/>
		<edge from-layer="2130" from-port="2" to-layer="2138" to-port="3"/>
		<edge from-layer="2130" from-port="2" to-layer="2131" to-port="3"/>
		<edge from-layer="2131" from-port="4" to-layer="2133" to-port="0"/>
		<edge from-layer="2132" from-port="0" to-layer="2133" to-port="1"/>
		<edge from-layer="2133" from-port="2" to-layer="2135" to-port="0"/>
		<edge from-layer="2134" from-port="0" to-layer="2135" to-port="1"/>
		<edge from-layer="2135" from-port="2" to-layer="2137" to-port="0"/>
		<edge from-layer="2136" from-port="0" to-layer="2137" to-port="1"/>
		<edge from-layer="2137" from-port="2" to-layer="2138" to-port="4"/>
		<edge from-layer="2138" from-port="5" to-layer="2140" to-port="0"/>
		<edge from-layer="2139" from-port="0" to-layer="2140" to-port="1"/>
		<edge from-layer="2140" from-port="2" to-layer="2142" to-port="0"/>
		<edge from-layer="2141" from-port="0" to-layer="2142" to-port="1"/>
		<edge from-layer="2142" from-port="2" to-layer="2143" to-port="0"/>
		<edge from-layer="2143" from-port="2" to-layer="2145" to-port="0"/>
		<edge from-layer="2144" from-port="0" to-layer="2145" to-port="1"/>
		<edge from-layer="2145" from-port="2" to-layer="2146" to-port="0"/>
		<edge from-layer="2146" from-port="2" to-layer="2160" to-port="0"/>
		<edge from-layer="2146" from-port="2" to-layer="2174" to-port="0"/>
		<edge from-layer="2146" from-port="2" to-layer="2179" to-port="1"/>
		<edge from-layer="2146" from-port="2" to-layer="2248" to-port="1"/>
		<edge from-layer="2146" from-port="2" to-layer="2167" to-port="0"/>
		<edge from-layer="2146" from-port="2" to-layer="2148" to-port="0"/>
		<edge from-layer="2146" from-port="2" to-layer="2153" to-port="0"/>
		<edge from-layer="2147" from-port="0" to-layer="2148" to-port="1"/>
		<edge from-layer="2148" from-port="2" to-layer="2150" to-port="0"/>
		<edge from-layer="2149" from-port="0" to-layer="2150" to-port="1"/>
		<edge from-layer="2150" from-port="2" to-layer="2152" to-port="0"/>
		<edge from-layer="2151" from-port="0" to-layer="2152" to-port="1"/>
		<edge from-layer="2152" from-port="2" to-layer="2153" to-port="1"/>
		<edge from-layer="2152" from-port="2" to-layer="2174" to-port="1"/>
		<edge from-layer="2152" from-port="2" to-layer="2167" to-port="1"/>
		<edge from-layer="2152" from-port="2" to-layer="2160" to-port="1"/>
		<edge from-layer="2153" from-port="2" to-layer="2155" to-port="0"/>
		<edge from-layer="2154" from-port="0" to-layer="2155" to-port="1"/>
		<edge from-layer="2155" from-port="2" to-layer="2157" to-port="0"/>
		<edge from-layer="2156" from-port="0" to-layer="2157" to-port="1"/>
		<edge from-layer="2157" from-port="2" to-layer="2159" to-port="0"/>
		<edge from-layer="2158" from-port="0" to-layer="2159" to-port="1"/>
		<edge from-layer="2159" from-port="2" to-layer="2160" to-port="2"/>
		<edge from-layer="2159" from-port="2" to-layer="2174" to-port="2"/>
		<edge from-layer="2159" from-port="2" to-layer="2167" to-port="2"/>
		<edge from-layer="2160" from-port="3" to-layer="2162" to-port="0"/>
		<edge from-layer="2161" from-port="0" to-layer="2162" to-port="1"/>
		<edge from-layer="2162" from-port="2" to-layer="2164" to-port="0"/>
		<edge from-layer="2163" from-port="0" to-layer="2164" to-port="1"/>
		<edge from-layer="2164" from-port="2" to-layer="2166" to-port="0"/>
		<edge from-layer="2165" from-port="0" to-layer="2166" to-port="1"/>
		<edge from-layer="2166" from-port="2" to-layer="2167" to-port="3"/>
		<edge from-layer="2166" from-port="2" to-layer="2174" to-port="3"/>
		<edge from-layer="2167" from-port="4" to-layer="2169" to-port="0"/>
		<edge from-layer="2168" from-port="0" to-layer="2169" to-port="1"/>
		<edge from-layer="2169" from-port="2" to-layer="2171" to-port="0"/>
		<edge from-layer="2170" from-port="0" to-layer="2171" to-port="1"/>
		<edge from-layer="2171" from-port="2" to-layer="2173" to-port="0"/>
		<edge from-layer="2172" from-port="0" to-layer="2173" to-port="1"/>
		<edge from-layer="2173" from-port="2" to-layer="2174" to-port="4"/>
		<edge from-layer="2174" from-port="5" to-layer="2176" to-port="0"/>
		<edge from-layer="2175" from-port="0" to-layer="2176" to-port="1"/>
		<edge from-layer="2176" from-port="2" to-layer="2178" to-port="0"/>
		<edge from-layer="2177" from-port="0" to-layer="2178" to-port="1"/>
		<edge from-layer="2178" from-port="2" to-layer="2179" to-port="0"/>
		<edge from-layer="2179" from-port="2" to-layer="2212" to-port="1"/>
		<edge from-layer="2179" from-port="2" to-layer="2207" to-port="0"/>
		<edge from-layer="2179" from-port="2" to-layer="2200" to-port="0"/>
		<edge from-layer="2179" from-port="2" to-layer="2193" to-port="0"/>
		<edge from-layer="2179" from-port="2" to-layer="2186" to-port="0"/>
		<edge from-layer="2179" from-port="2" to-layer="2181" to-port="0"/>
		<edge from-layer="2180" from-port="0" to-layer="2181" to-port="1"/>
		<edge from-layer="2181" from-port="2" to-layer="2183" to-port="0"/>
		<edge from-layer="2182" from-port="0" to-layer="2183" to-port="1"/>
		<edge from-layer="2183" from-port="2" to-layer="2185" to-port="0"/>
		<edge from-layer="2184" from-port="0" to-layer="2185" to-port="1"/>
		<edge from-layer="2185" from-port="2" to-layer="2186" to-port="1"/>
		<edge from-layer="2185" from-port="2" to-layer="2207" to-port="1"/>
		<edge from-layer="2185" from-port="2" to-layer="2200" to-port="1"/>
		<edge from-layer="2185" from-port="2" to-layer="2193" to-port="1"/>
		<edge from-layer="2186" from-port="2" to-layer="2188" to-port="0"/>
		<edge from-layer="2187" from-port="0" to-layer="2188" to-port="1"/>
		<edge from-layer="2188" from-port="2" to-layer="2190" to-port="0"/>
		<edge from-layer="2189" from-port="0" to-layer="2190" to-port="1"/>
		<edge from-layer="2190" from-port="2" to-layer="2192" to-port="0"/>
		<edge from-layer="2191" from-port="0" to-layer="2192" to-port="1"/>
		<edge from-layer="2192" from-port="2" to-layer="2200" to-port="2"/>
		<edge from-layer="2192" from-port="2" to-layer="2207" to-port="2"/>
		<edge from-layer="2192" from-port="2" to-layer="2193" to-port="2"/>
		<edge from-layer="2193" from-port="3" to-layer="2195" to-port="0"/>
		<edge from-layer="2194" from-port="0" to-layer="2195" to-port="1"/>
		<edge from-layer="2195" from-port="2" to-layer="2197" to-port="0"/>
		<edge from-layer="2196" from-port="0" to-layer="2197" to-port="1"/>
		<edge from-layer="2197" from-port="2" to-layer="2199" to-port="0"/>
		<edge from-layer="2198" from-port="0" to-layer="2199" to-port="1"/>
		<edge from-layer="2199" from-port="2" to-layer="2207" to-port="3"/>
		<edge from-layer="2199" from-port="2" to-layer="2200" to-port="3"/>
		<edge from-layer="2200" from-port="4" to-layer="2202" to-port="0"/>
		<edge from-layer="2201" from-port="0" to-layer="2202" to-port="1"/>
		<edge from-layer="2202" from-port="2" to-layer="2204" to-port="0"/>
		<edge from-layer="2203" from-port="0" to-layer="2204" to-port="1"/>
		<edge from-layer="2204" from-port="2" to-layer="2206" to-port="0"/>
		<edge from-layer="2205" from-port="0" to-layer="2206" to-port="1"/>
		<edge from-layer="2206" from-port="2" to-layer="2207" to-port="4"/>
		<edge from-layer="2207" from-port="5" to-layer="2209" to-port="0"/>
		<edge from-layer="2208" from-port="0" to-layer="2209" to-port="1"/>
		<edge from-layer="2209" from-port="2" to-layer="2211" to-port="0"/>
		<edge from-layer="2210" from-port="0" to-layer="2211" to-port="1"/>
		<edge from-layer="2211" from-port="2" to-layer="2212" to-port="0"/>
		<edge from-layer="2212" from-port="2" to-layer="2245" to-port="1"/>
		<edge from-layer="2212" from-port="2" to-layer="2240" to-port="0"/>
		<edge from-layer="2212" from-port="2" to-layer="2233" to-port="0"/>
		<edge from-layer="2212" from-port="2" to-layer="2226" to-port="0"/>
		<edge from-layer="2212" from-port="2" to-layer="2214" to-port="0"/>
		<edge from-layer="2212" from-port="2" to-layer="2219" to-port="0"/>
		<edge from-layer="2213" from-port="0" to-layer="2214" to-port="1"/>
		<edge from-layer="2214" from-port="2" to-layer="2216" to-port="0"/>
		<edge from-layer="2215" from-port="0" to-layer="2216" to-port="1"/>
		<edge from-layer="2216" from-port="2" to-layer="2218" to-port="0"/>
		<edge from-layer="2217" from-port="0" to-layer="2218" to-port="1"/>
		<edge from-layer="2218" from-port="2" to-layer="2226" to-port="1"/>
		<edge from-layer="2218" from-port="2" to-layer="2219" to-port="1"/>
		<edge from-layer="2218" from-port="2" to-layer="2240" to-port="1"/>
		<edge from-layer="2218" from-port="2" to-layer="2233" to-port="1"/>
		<edge from-layer="2219" from-port="2" to-layer="2221" to-port="0"/>
		<edge from-layer="2220" from-port="0" to-layer="2221" to-port="1"/>
		<edge from-layer="2221" from-port="2" to-layer="2223" to-port="0"/>
		<edge from-layer="2222" from-port="0" to-layer="2223" to-port="1"/>
		<edge from-layer="2223" from-port="2" to-layer="2225" to-port="0"/>
		<edge from-layer="2224" from-port="0" to-layer="2225" to-port="1"/>
		<edge from-layer="2225" from-port="2" to-layer="2226" to-port="2"/>
		<edge from-layer="2225" from-port="2" to-layer="2233" to-port="2"/>
		<edge from-layer="2225" from-port="2" to-layer="2240" to-port="2"/>
		<edge from-layer="2226" from-port="3" to-layer="2228" to-port="0"/>
		<edge from-layer="2227" from-port="0" to-layer="2228" to-port="1"/>
		<edge from-layer="2228" from-port="2" to-layer="2230" to-port="0"/>
		<edge from-layer="2229" from-port="0" to-layer="2230" to-port="1"/>
		<edge from-layer="2230" from-port="2" to-layer="2232" to-port="0"/>
		<edge from-layer="2231" from-port="0" to-layer="2232" to-port="1"/>
		<edge from-layer="2232" from-port="2" to-layer="2240" to-port="3"/>
		<edge from-layer="2232" from-port="2" to-layer="2233" to-port="3"/>
		<edge from-layer="2233" from-port="4" to-layer="2235" to-port="0"/>
		<edge from-layer="2234" from-port="0" to-layer="2235" to-port="1"/>
		<edge from-layer="2235" from-port="2" to-layer="2237" to-port="0"/>
		<edge from-layer="2236" from-port="0" to-layer="2237" to-port="1"/>
		<edge from-layer="2237" from-port="2" to-layer="2239" to-port="0"/>
		<edge from-layer="2238" from-port="0" to-layer="2239" to-port="1"/>
		<edge from-layer="2239" from-port="2" to-layer="2240" to-port="4"/>
		<edge from-layer="2240" from-port="5" to-layer="2242" to-port="0"/>
		<edge from-layer="2241" from-port="0" to-layer="2242" to-port="1"/>
		<edge from-layer="2242" from-port="2" to-layer="2244" to-port="0"/>
		<edge from-layer="2243" from-port="0" to-layer="2244" to-port="1"/>
		<edge from-layer="2244" from-port="2" to-layer="2245" to-port="0"/>
		<edge from-layer="2245" from-port="2" to-layer="2247" to-port="0"/>
		<edge from-layer="2246" from-port="0" to-layer="2247" to-port="1"/>
		<edge from-layer="2247" from-port="2" to-layer="2248" to-port="0"/>
		<edge from-layer="2248" from-port="2" to-layer="2281" to-port="1"/>
		<edge from-layer="2248" from-port="2" to-layer="2350" to-port="1"/>
		<edge from-layer="2248" from-port="2" to-layer="2276" to-port="0"/>
		<edge from-layer="2248" from-port="2" to-layer="2269" to-port="0"/>
		<edge from-layer="2248" from-port="2" to-layer="2262" to-port="0"/>
		<edge from-layer="2248" from-port="2" to-layer="2255" to-port="0"/>
		<edge from-layer="2248" from-port="2" to-layer="2250" to-port="0"/>
		<edge from-layer="2249" from-port="0" to-layer="2250" to-port="1"/>
		<edge from-layer="2250" from-port="2" to-layer="2252" to-port="0"/>
		<edge from-layer="2251" from-port="0" to-layer="2252" to-port="1"/>
		<edge from-layer="2252" from-port="2" to-layer="2254" to-port="0"/>
		<edge from-layer="2253" from-port="0" to-layer="2254" to-port="1"/>
		<edge from-layer="2254" from-port="2" to-layer="2255" to-port="1"/>
		<edge from-layer="2254" from-port="2" to-layer="2276" to-port="1"/>
		<edge from-layer="2254" from-port="2" to-layer="2269" to-port="1"/>
		<edge from-layer="2254" from-port="2" to-layer="2262" to-port="1"/>
		<edge from-layer="2255" from-port="2" to-layer="2257" to-port="0"/>
		<edge from-layer="2256" from-port="0" to-layer="2257" to-port="1"/>
		<edge from-layer="2257" from-port="2" to-layer="2259" to-port="0"/>
		<edge from-layer="2258" from-port="0" to-layer="2259" to-port="1"/>
		<edge from-layer="2259" from-port="2" to-layer="2261" to-port="0"/>
		<edge from-layer="2260" from-port="0" to-layer="2261" to-port="1"/>
		<edge from-layer="2261" from-port="2" to-layer="2269" to-port="2"/>
		<edge from-layer="2261" from-port="2" to-layer="2276" to-port="2"/>
		<edge from-layer="2261" from-port="2" to-layer="2262" to-port="2"/>
		<edge from-layer="2262" from-port="3" to-layer="2264" to-port="0"/>
		<edge from-layer="2263" from-port="0" to-layer="2264" to-port="1"/>
		<edge from-layer="2264" from-port="2" to-layer="2266" to-port="0"/>
		<edge from-layer="2265" from-port="0" to-layer="2266" to-port="1"/>
		<edge from-layer="2266" from-port="2" to-layer="2268" to-port="0"/>
		<edge from-layer="2267" from-port="0" to-layer="2268" to-port="1"/>
		<edge from-layer="2268" from-port="2" to-layer="2276" to-port="3"/>
		<edge from-layer="2268" from-port="2" to-layer="2269" to-port="3"/>
		<edge from-layer="2269" from-port="4" to-layer="2271" to-port="0"/>
		<edge from-layer="2270" from-port="0" to-layer="2271" to-port="1"/>
		<edge from-layer="2271" from-port="2" to-layer="2273" to-port="0"/>
		<edge from-layer="2272" from-port="0" to-layer="2273" to-port="1"/>
		<edge from-layer="2273" from-port="2" to-layer="2275" to-port="0"/>
		<edge from-layer="2274" from-port="0" to-layer="2275" to-port="1"/>
		<edge from-layer="2275" from-port="2" to-layer="2276" to-port="4"/>
		<edge from-layer="2276" from-port="5" to-layer="2278" to-port="0"/>
		<edge from-layer="2277" from-port="0" to-layer="2278" to-port="1"/>
		<edge from-layer="2278" from-port="2" to-layer="2280" to-port="0"/>
		<edge from-layer="2279" from-port="0" to-layer="2280" to-port="1"/>
		<edge from-layer="2280" from-port="2" to-layer="2281" to-port="0"/>
		<edge from-layer="2281" from-port="2" to-layer="2283" to-port="0"/>
		<edge from-layer="2281" from-port="2" to-layer="2314" to-port="1"/>
		<edge from-layer="2281" from-port="2" to-layer="2309" to-port="0"/>
		<edge from-layer="2281" from-port="2" to-layer="2302" to-port="0"/>
		<edge from-layer="2281" from-port="2" to-layer="2295" to-port="0"/>
		<edge from-layer="2281" from-port="2" to-layer="2288" to-port="0"/>
		<edge from-layer="2282" from-port="0" to-layer="2283" to-port="1"/>
		<edge from-layer="2283" from-port="2" to-layer="2285" to-port="0"/>
		<edge from-layer="2284" from-port="0" to-layer="2285" to-port="1"/>
		<edge from-layer="2285" from-port="2" to-layer="2287" to-port="0"/>
		<edge from-layer="2286" from-port="0" to-layer="2287" to-port="1"/>
		<edge from-layer="2287" from-port="2" to-layer="2288" to-port="1"/>
		<edge from-layer="2287" from-port="2" to-layer="2309" to-port="1"/>
		<edge from-layer="2287" from-port="2" to-layer="2295" to-port="1"/>
		<edge from-layer="2287" from-port="2" to-layer="2302" to-port="1"/>
		<edge from-layer="2288" from-port="2" to-layer="2290" to-port="0"/>
		<edge from-layer="2289" from-port="0" to-layer="2290" to-port="1"/>
		<edge from-layer="2290" from-port="2" to-layer="2292" to-port="0"/>
		<edge from-layer="2291" from-port="0" to-layer="2292" to-port="1"/>
		<edge from-layer="2292" from-port="2" to-layer="2294" to-port="0"/>
		<edge from-layer="2293" from-port="0" to-layer="2294" to-port="1"/>
		<edge from-layer="2294" from-port="2" to-layer="2295" to-port="2"/>
		<edge from-layer="2294" from-port="2" to-layer="2302" to-port="2"/>
		<edge from-layer="2294" from-port="2" to-layer="2309" to-port="2"/>
		<edge from-layer="2295" from-port="3" to-layer="2297" to-port="0"/>
		<edge from-layer="2296" from-port="0" to-layer="2297" to-port="1"/>
		<edge from-layer="2297" from-port="2" to-layer="2299" to-port="0"/>
		<edge from-layer="2298" from-port="0" to-layer="2299" to-port="1"/>
		<edge from-layer="2299" from-port="2" to-layer="2301" to-port="0"/>
		<edge from-layer="2300" from-port="0" to-layer="2301" to-port="1"/>
		<edge from-layer="2301" from-port="2" to-layer="2302" to-port="3"/>
		<edge from-layer="2301" from-port="2" to-layer="2309" to-port="3"/>
		<edge from-layer="2302" from-port="4" to-layer="2304" to-port="0"/>
		<edge from-layer="2303" from-port="0" to-layer="2304" to-port="1"/>
		<edge from-layer="2304" from-port="2" to-layer="2306" to-port="0"/>
		<edge from-layer="2305" from-port="0" to-layer="2306" to-port="1"/>
		<edge from-layer="2306" from-port="2" to-layer="2308" to-port="0"/>
		<edge from-layer="2307" from-port="0" to-layer="2308" to-port="1"/>
		<edge from-layer="2308" from-port="2" to-layer="2309" to-port="4"/>
		<edge from-layer="2309" from-port="5" to-layer="2311" to-port="0"/>
		<edge from-layer="2310" from-port="0" to-layer="2311" to-port="1"/>
		<edge from-layer="2311" from-port="2" to-layer="2313" to-port="0"/>
		<edge from-layer="2312" from-port="0" to-layer="2313" to-port="1"/>
		<edge from-layer="2313" from-port="2" to-layer="2314" to-port="0"/>
		<edge from-layer="2314" from-port="2" to-layer="2316" to-port="0"/>
		<edge from-layer="2314" from-port="2" to-layer="2347" to-port="1"/>
		<edge from-layer="2314" from-port="2" to-layer="2342" to-port="0"/>
		<edge from-layer="2314" from-port="2" to-layer="2335" to-port="0"/>
		<edge from-layer="2314" from-port="2" to-layer="2328" to-port="0"/>
		<edge from-layer="2314" from-port="2" to-layer="2321" to-port="0"/>
		<edge from-layer="2315" from-port="0" to-layer="2316" to-port="1"/>
		<edge from-layer="2316" from-port="2" to-layer="2318" to-port="0"/>
		<edge from-layer="2317" from-port="0" to-layer="2318" to-port="1"/>
		<edge from-layer="2318" from-port="2" to-layer="2320" to-port="0"/>
		<edge from-layer="2319" from-port="0" to-layer="2320" to-port="1"/>
		<edge from-layer="2320" from-port="2" to-layer="2321" to-port="1"/>
		<edge from-layer="2320" from-port="2" to-layer="2342" to-port="1"/>
		<edge from-layer="2320" from-port="2" to-layer="2328" to-port="1"/>
		<edge from-layer="2320" from-port="2" to-layer="2335" to-port="1"/>
		<edge from-layer="2321" from-port="2" to-layer="2323" to-port="0"/>
		<edge from-layer="2322" from-port="0" to-layer="2323" to-port="1"/>
		<edge from-layer="2323" from-port="2" to-layer="2325" to-port="0"/>
		<edge from-layer="2324" from-port="0" to-layer="2325" to-port="1"/>
		<edge from-layer="2325" from-port="2" to-layer="2327" to-port="0"/>
		<edge from-layer="2326" from-port="0" to-layer="2327" to-port="1"/>
		<edge from-layer="2327" from-port="2" to-layer="2328" to-port="2"/>
		<edge from-layer="2327" from-port="2" to-layer="2335" to-port="2"/>
		<edge from-layer="2327" from-port="2" to-layer="2342" to-port="2"/>
		<edge from-layer="2328" from-port="3" to-layer="2330" to-port="0"/>
		<edge from-layer="2329" from-port="0" to-layer="2330" to-port="1"/>
		<edge from-layer="2330" from-port="2" to-layer="2332" to-port="0"/>
		<edge from-layer="2331" from-port="0" to-layer="2332" to-port="1"/>
		<edge from-layer="2332" from-port="2" to-layer="2334" to-port="0"/>
		<edge from-layer="2333" from-port="0" to-layer="2334" to-port="1"/>
		<edge from-layer="2334" from-port="2" to-layer="2335" to-port="3"/>
		<edge from-layer="2334" from-port="2" to-layer="2342" to-port="3"/>
		<edge from-layer="2335" from-port="4" to-layer="2337" to-port="0"/>
		<edge from-layer="2336" from-port="0" to-layer="2337" to-port="1"/>
		<edge from-layer="2337" from-port="2" to-layer="2339" to-port="0"/>
		<edge from-layer="2338" from-port="0" to-layer="2339" to-port="1"/>
		<edge from-layer="2339" from-port="2" to-layer="2341" to-port="0"/>
		<edge from-layer="2340" from-port="0" to-layer="2341" to-port="1"/>
		<edge from-layer="2341" from-port="2" to-layer="2342" to-port="4"/>
		<edge from-layer="2342" from-port="5" to-layer="2344" to-port="0"/>
		<edge from-layer="2343" from-port="0" to-layer="2344" to-port="1"/>
		<edge from-layer="2344" from-port="2" to-layer="2346" to-port="0"/>
		<edge from-layer="2345" from-port="0" to-layer="2346" to-port="1"/>
		<edge from-layer="2346" from-port="2" to-layer="2347" to-port="0"/>
		<edge from-layer="2347" from-port="2" to-layer="2349" to-port="0"/>
		<edge from-layer="2348" from-port="0" to-layer="2349" to-port="1"/>
		<edge from-layer="2349" from-port="2" to-layer="2350" to-port="0"/>
		<edge from-layer="2350" from-port="2" to-layer="2352" to-port="0"/>
		<edge from-layer="2351" from-port="0" to-layer="2352" to-port="1"/>
		<edge from-layer="2352" from-port="2" to-layer="2354" to-port="0"/>
		<edge from-layer="2353" from-port="0" to-layer="2354" to-port="1"/>
		<edge from-layer="2354" from-port="2" to-layer="2355" to-port="1"/>
		<edge from-layer="2355" from-port="2" to-layer="2356" to-port="0"/>
		<edge from-layer="2355" from-port="2" to-layer="2370" to-port="0"/>
		<edge from-layer="2356" from-port="1" to-layer="2357" to-port="0"/>
		<edge from-layer="2357" from-port="1" to-layer="2359" to-port="0"/>
		<edge from-layer="2358" from-port="0" to-layer="2359" to-port="1"/>
		<edge from-layer="2359" from-port="2" to-layer="2361" to-port="0"/>
		<edge from-layer="2360" from-port="0" to-layer="2361" to-port="1"/>
		<edge from-layer="2361" from-port="2" to-layer="2362" to-port="0"/>
		<edge from-layer="2362" from-port="1" to-layer="2363" to-port="0"/>
		<edge from-layer="2363" from-port="1" to-layer="2367" to-port="0"/>
		<edge from-layer="2364" from-port="0" to-layer="2367" to-port="1"/>
		<edge from-layer="2365" from-port="0" to-layer="2367" to-port="2"/>
		<edge from-layer="2366" from-port="0" to-layer="2367" to-port="3"/>
		<edge from-layer="2367" from-port="4" to-layer="2370" to-port="1"/>
		<edge from-layer="2368" from-port="0" to-layer="2370" to-port="2"/>
		<edge from-layer="2369" from-port="0" to-layer="2370" to-port="3"/>
		<edge from-layer="2370" from-port="4" to-layer="2372" to-port="0"/>
		<edge from-layer="2371" from-port="0" to-layer="2372" to-port="1"/>
		<edge from-layer="2372" from-port="2" to-layer="2374" to-port="0"/>
		<edge from-layer="2373" from-port="0" to-layer="2374" to-port="1"/>
		<edge from-layer="2374" from-port="2" to-layer="2376" to-port="0"/>
		<edge from-layer="2375" from-port="0" to-layer="2376" to-port="1"/>
		<edge from-layer="2376" from-port="2" to-layer="2378" to-port="0"/>
		<edge from-layer="2377" from-port="0" to-layer="2378" to-port="1"/>
		<edge from-layer="2378" from-port="2" to-layer="2380" to-port="0"/>
		<edge from-layer="2379" from-port="0" to-layer="2380" to-port="1"/>
		<edge from-layer="2380" from-port="2" to-layer="2382" to-port="0"/>
		<edge from-layer="2381" from-port="0" to-layer="2382" to-port="1"/>
		<edge from-layer="2382" from-port="2" to-layer="2384" to-port="0"/>
		<edge from-layer="2383" from-port="0" to-layer="2384" to-port="1"/>
		<edge from-layer="2384" from-port="2" to-layer="2386" to-port="0"/>
		<edge from-layer="2385" from-port="0" to-layer="2386" to-port="1"/>
		<edge from-layer="2386" from-port="2" to-layer="2387" to-port="0"/>
	</edges>
	<meta_data>
		<MO_version value="2021.4.0-3839-cd81789d294-releases/2021/4"/>
		<cli_parameters>
			<caffe_parser_path value="DIR"/>
			<data_type value="FP32"/>
			<disable_nhwc_to_nchw value="False"/>
			<disable_omitting_optional value="False"/>
			<disable_resnet_optimization value="False"/>
			<disable_weights_compression value="False"/>
			<enable_concat_optimization value="False"/>
			<enable_flattening_nested_params value="False"/>
			<enable_ssd_gluoncv value="False"/>
			<extensions value="DIR"/>
			<framework value="onnx"/>
			<freeze_placeholder_with_value value="{}"/>
			<generate_deprecated_IR_V7 value="False"/>
			<input_model value="DIR/bsrganx2_160x160.onnx"/>
			<input_model_is_text value="False"/>
			<k value="DIR/CustomLayersMapping.xml"/>
			<keep_shape_ops value="True"/>
			<legacy_ir_generation value="False"/>
			<legacy_mxnet_model value="False"/>
			<log_level value="ERROR"/>
			<mean_scale_values value="{}"/>
			<mean_values value="()"/>
			<model_name value="bsrganx2_160x160"/>
			<output_dir value="DIR"/>
			<placeholder_data_types value="{}"/>
			<progress value="False"/>
			<remove_memory value="False"/>
			<remove_output_softmax value="False"/>
			<reverse_input_channels value="False"/>
			<save_params_from_nd value="False"/>
			<scale_values value="()"/>
			<silent value="False"/>
			<static_shape value="False"/>
			<stream_output value="False"/>
			<transform value=""/>
			<unset unset_cli_parameters="batch, counts, disable_fusing, disable_gfusing, finegrain_fusing, input, input_checkpoint, input_meta_graph, input_proto, input_shape, input_symbol, mean_file, mean_file_offsets, move_to_preprocess, nd_prefix_name, output, placeholder_shapes, pretrained_model_name, saved_model_dir, saved_model_tags, scale, tensorboard_logdir, tensorflow_custom_layer_libraries, tensorflow_custom_operations_config_update, tensorflow_object_detection_api_pipeline_config, tensorflow_use_custom_operations_config, transformations_config"/>
		</cli_parameters>
	</meta_data>
</net>
